model/model_ICE.pkl (torch, 748258 bytes, 13 tensors)

weight f4 [512, 220]
-0.055131823 -0.0028176298 -0.02187642 -0.011639067 -0.07087098 0.17759314 0.048149623 0.05838412
0.034187317 0.07974006 -0.023412123 0.03644296 -0.033883538 -0.05194118 0.0038512805 -0.048497457
0.08999262 0.06367249 0.06446308 -0.0041457997 0.050186228 -0.0095238695 0.062241044 0.055244632
-0.020533402 0.059122898 0.08339182 0.11105895 -0.030119475 -0.031952623 -0.016918428 -0.013650151
-0.03426688 0.13288365 0.03157039 0.12689468 0.0053022937 0.11488925 0.10682866 0.045317084
0.00050034706 0.08419808 0.03515944 0.09788945 0.2059054 0.104163036 0.081753194 0.15065643
0.1731627 0.14969087 0.18626292 0.052232333 0.13484378 0.10430274 0.10827194 0.23995675
0.20235853 0.22713128 0.13510804 0.15471348 0.12949446 0.10052965 0.16287321 0.10934351
0.19996466 0.1671038 0.23512648 0.2580211 0.25034615 0.27372342 0.2558421 0.19409774
0.2559502 0.21779327 0.2693257 0.25548664 0.17760374 0.330874 0.25073436 0.3277224
0.31695604 0.21335712 0.235155 0.25990984 0.25460333 0.30596533 0.31441224 0.2400303
0.30702972 0.30697465 0.3140758 0.24555443 0.34538063 0.34156874 0.32937187 0.37432605
0.34774676 0.33676133 0.3831109 0.3267707 0.39684448 0.37492067 0.38379017 0.29760984
0.38994414 0.41579002 0.30876675 0.29962876 0.40018278 0.40311167 0.2675259 -0.075499386
-0.10143754 0.09185747 -0.24294953 -0.05114543 0.054327607 0.061817802 0.25099993 0.12434108
0.10437129 0.036715895 -0.15351894 -0.1005942 -0.35178834 -0.02788155 0.052940097 0.10395802
0.1813111 0.16770987 -0.03862894 -0.030956045 -0.1625901 0.06362614 -0.21783179 -0.0755986
-0.021183876 -0.090074554 -0.09317116 -0.017651143 0.027222011 0.070574604 -0.080697246 0.07416354
-0.18978205 -0.008417871 0.0037602405 0.06247723 0.04669519 0.014040424 0.0066451016 0.019352173
-0.07920407 0.09951401 -0.03239837 -0.081727654 -0.048139114 -0.019811694 0.020917749 -0.08161474
0.11182124 0.10394046 -0.0475186 0.1743366 -0.084642455 -0.031053077 -0.08716382 -0.015483426
0.013041491 -0.0006145686 -0.059503768 0.08370747 -0.022618102 0.13970962 -0.091859214 0.08950226
0.031843632 0.035640076 -0.0537864 -0.1534727 -0.010288927 -0.11119566 0.017511325 0.22321339
-0.03519003 0.104081646 0.01474821 0.046592306 0.054499976 -0.041570745 -0.09881989 -0.13387589
-0.014696682 0.13635926 0.009120572 0.008051717 0.099767104 -0.06461353 -0.088913195 -0.08941152
-0.02961377 -0.03327895 -0.1429567 0.12035028 -0.074955314 0.07437507 -0.026881665 0.11594089
-0.1080735 -0.08211761 2.6085248 1.7195995 1.2475086 1.0136563 0.60464144 0.5734739
0.5633429 0.47254467 0.47887817 0.44905826 0.053433407 0.043283306 0.022232542 0.07176377
-0.07070725 -0.103443734 0.014106743 0.074961826 0.065752186 0.0905969 0.087107345 0.12866008
0.08509317 0.13253844 0.10714617 0.09119952 -0.019751769 0.05225516 0.1811553 0.13713673
0.17709643 0.18323341 0.10285413 0.0814621 0.095237896 0.15661961 0.13122283 0.076454885
0.14158946 0.14922275 0.13899918 0.14203401 0.15129785 0.12279854 0.1282751 0.16506588
00000000: e8d1 61bd fca7 38bb 2e36 b3bc c9b1 3ebc
00000010: ce24 91bd fada 353e 8a38 453d 3024 6f3d
00000020: 0008 0c3d c24e a33d c8ca bfbc 3745 153d
00000030: 77c9 0abd 46c0 54bd c465 7c3b 45a5 46bd
00000040: 0d4e b83d b966 823d 3805 843d 7dd9 87bb
00000050: 1390 4d3d 010a 1cbc 77f0 7e3d 3248 623d
00000060: aa35 a8bc da2a 723d 55c9 aa3d e072 e33d
00000070: 1ebd f6bc c1e0 02bd 8498 8abc e2a4 5fbc
00000080: 6e5b 0cbd a712 083e f44f 013d aef0 013e
00000090: ddbe ad3b 0e4b eb3d fcc8 da3d 689e 393d
000000a0: b929 033a 0b70 ac3d 5803 103d 447a c83d
000000b0: ddd8 523e 6e53 d53d 386e a73d ae45 1a3e
000000c0: 9051 313e 9048 193e b5bb 3e3e 92f1 553d
000000d0: 7d14 0a3e ad9c d53d aebd dd3d 39b7 753e
000000e0: 1337 4f3e 1a95 683e c359 0a3e 366d 1e3e
000000f0: 329a 043e 7de2 cd3d 3cc8 263e 7def df3d
00000100: 89c3 4c3e 421d 2b3e ffc4 703e 571b 843e
00000110: 5f2d 803e 7a25 8c3e bcfd 823e 8fc1 463e
00000120: e80b 833e 3305 5f3e 0fe5 893e 25cf 823e
00000130: c1dd 353e 5168 a93e 4160 803e 3bcb a73e
00000140: 1048 a23e 4a7a 5a3e 79cc 703e e712 853e
00000150: 5e5b 823e 7da7 9c3e a4fa a03e 81ca 753e
00000160: 0033 9d3e c82b 9d3e 8bce a03e 9f72 7b3e
00000170: bbd5 b03e 19e2 ae3e 6ea3 a83e aaa7 bf3e
00000180: dd0b b23e fb6b ac3e 1d27 c43e 7d4e a73e
00000190: 332f cb3e 9af5 bf3e 2580 c43e 5160 983e
000001a0: c2a6 c73e 6ee2 d43e ad16 9e3e f168 993e
000001b0: c2e4 cc3e a764 ce3e 28f9 883e 6c9f 9abd
000001c0: 7cbe cfbd c51f bc3d c3c7 78be df7d 51bd
000001d0: a086 5e3d aa34 7d3d 1083 803e 89a6 fe3d
000001e0: 9dc0 d53d 6863 163d 1234 1dbe 5504 cebd
000001f0: 9a1d b4be d967 e4bc b7d7 583d f1e7 d43d
00000200: 9ea9 393e 23bc 2b3e 6139 1ebd 8897 fdbc
00000210: 057e 26be 6c4e 823d 4c0f 5fbe 70d3 9abd
00000220: cf89 adbc 0279 b8bd 85d0 bebd 2199 90bc
00000230: b200 df3c 6b89 903d 9944 a5bd 0ee3 973d
00000240: 3a56 42be 1ceb 09bc 5e6e 763b 20e8 7f3d
00000250: 7543 3f3d ce09 663c 27bf d93b 7388 9e3c
00000260: be35 a2bd 00ce cb3d 27b4 04bd d460 a7bd
00000270: 852d 45bd 224c a2bc b35b ab3c a125 a7bd
00000280: 8902 e53d bcde d43d dda2 42bd 4b85 323e
00000290: 0659 adbd 0663 febc f282 b2bd 32ae 7dbc
000002a0: faab 553c 001b 21ba 39ba 73bd d26e ab3d
000002b0: 9949 b9bc 0a10 0f3e af20 bcbd f64c b73d
000002c0: 786e 023d 54fb 113d 214f 5cbd f327 1dbe
000002d0: e392 28bc 8dba e3bd e973 8f3c 0d92 643e
000002e0: 6c23 10bd c228 d53d 7aa2 713c 93d7 3e3d
000002f0: 5e3b 5f3d 1646 2abd 1562 cabd c316 09be
00000300: 5aca 70bc c3a1 0b3e 746e 153c 59eb 033c
00000310: b252 cc3d 1954 84bd 1f18 b6bd 631d b7bd
00000320: 9498 f2bc 824f 08bd 3e63 12be 357a f63d
00000330: 2c82 99bd f551 983d f036 dcbc 6b72 ed3d
00000340: a455 ddbd 472d a8bd 12f2 2640 d61b dc3f
00000350: 5dae 9f3f 7dbf 813f c8c9 1a3f 2fcf 123f
00000360: 3e37 103f 60f1 f13e 852f f53e f7ea e53e
00000370: fddc 5a3d d649 313d 0521 b63c e2f8 923d
00000380: f6ce 90bd 4fda d3bd f81f 673c 9685 993d
00000390: 15a9 863d de8a b93d 5665 b23d 78bf 033e
000003a0: 5445 ae3d 28b8 073e 746f db3d d0c6 ba3d
000003b0: 76ce a1bc 8209 563d c680 393e 926d 0c3e
000003c0: c458 353e 8aa1 3b3e 30a5 d23d 9ad5 a63d
000003d0: 160c c33d e460 203e 475f 063e 6194 9c3d
000003e0: d4fc 103e d9cd 183e cd55 0e3e 5d71 113e
000003f0: d3ed 1a3e cd7d fb3d 8c5a 033e 0807 293e

bias f4 [512]
0.05088859 0.061617125 0.02674326 -0.047604177 0.053046823 -0.01725313 0.063115455 -0.026997117
-0.025370315 -0.05381153 0.041620232 0.002293572 -0.055890296 0.06487817 0.042790934 0.031998623
0.030484354 0.0035236804 0.012848257 -0.06347014 -0.04062659 -0.03174796 -0.0074295914 0.023633733
0.0025023217 0.020199249 0.036414467 0.0028259852 -0.0025726159 0.034727298 0.028950013 0.0594577
-0.053801775 -0.049976874 0.048695352 0.023609454 0.06556329 -0.0527686 0.010440703 -0.007307188
0.05568017 0.060905986 -0.042033937 0.045340966 0.023643512 0.056545347 -0.040458158 0.006803511
0.01778798 0.0021095022 0.019981867 0.061929267 -0.06330368 0.0008839227 0.0008112156 0.06607249
-0.06674541 -0.028307855 -0.05498549 -0.014948985 -0.03465617 -0.033531815 -0.016112458 -0.010332424
0.043740798 0.054175172 0.019111322 0.049675502 0.03509649 0.054916672 -0.06626363 -0.0040856805
0.0004532444 -0.05537072 -0.06298569 -0.026513804 0.017472731 -0.02211794 0.022604054 0.023397584
-0.016151505 0.02745748 0.06374791 0.054210912 0.031046096 0.06014522 0.00743266 -0.050449632
0.019975007 0.012121982 0.063014396 -0.06548888 0.030635424 0.037203297 0.053384963 -0.0025266244
0.0359189 0.028282616 -0.0640344 0.0009162522 0.063589334 0.026108077 0.02830534 -0.025373327
0.039175436 -0.050909523 -0.010110276 -0.05712639 0.0035642707 -0.036800776 0.038921382 -0.019423384
0.034363013 -0.009046392 0.061849546 -0.04452336 0.024322474 -0.05239835 0.020594247 0.020879705
-0.023084637 -0.061870657 0.030081565 -0.004388919 -0.037889905 -0.049136225 0.051315818 0.014838388
-0.011315622 -0.0023068835 0.038354296 0.054293297 -0.050013147 0.010203641 -0.013880101 0.044711564
0.018757071 0.04757611 -0.0061904197 -0.004591647 0.048789326 0.051361326 -0.050110254 -0.0011812763
-0.009584632 -0.034737777 -0.016779955 -0.052631054 0.01934326 -0.027530776 0.036342114 0.009618837
0.0068661007 0.049408123 0.045415998 -0.03679267 -0.052592885 -0.05435714 0.052291222 -0.0040643043
0.028810669 0.0008580418 -0.058166444 -0.030422563 0.022109848 -0.021373667 -0.002636438 -0.038199276
-0.010649542 0.06371764 -0.007810989 0.025737023 -0.027522188 -0.05272321 0.03597507 -0.042248808
0.027198013 0.03669254 -0.05715158 -0.06643702 -0.006334777 -0.05569395 0.006360799 -0.0010717819
0.02640996 -0.060754117 0.015375346 -0.008339408 -0.031944465 -0.028960286 -0.027135741 -0.048332807
-0.0326817 0.010867489 0.018927392 -0.022541247 0.0053561605 -0.055581857 -0.021325411 -0.022160344
-0.004564618 0.032854892 0.0062548337 0.017728927 0.050154988 -0.03568566 0.028493658 0.028585492
0.059319764 -0.030862754 -0.06475966 0.0127065275 -0.010103318 0.009920882 -0.039220713 -0.020885173
0.06392395 0.065642156 -0.000421064 -0.0016043325 -0.06731457 0.03863382 -0.019179506 -0.06213423
-0.032819867 -0.00935513 -0.021852309 -0.06565297 -0.05964048 0.045065083 -0.015622406 0.0019356448
0.058134515 -0.018903114 -0.047479775 0.024193978 0.036866277 0.066011064 -0.041866537 0.013292551
-0.023647387 -0.046411 0.018416097 -0.05069822 0.022829443 0.03417787 -0.009028803 -0.051361196
-0.0148520395 0.04222694 0.0011573721 0.021189017 -0.031011766 -0.0058137258 -0.00072595413 -0.046623223
00000000: 8e70 503d 3d62 7c3d ae14 db3c 99fc 42bd
00000010: a047 593d 7056 8dbc ad42 813d 0f29 ddbc
00000020: 68d5 cfbc 7b69 5cbd fa79 2a3d c14f 163b
00000030: 39ed 64bd d9de 843d 8c45 2f3d fd10 033d
00000040: 53ba f93c 8ced 663b 7f81 523c a2fc 81bd
00000050: 1168 26bd 260a 02bd ee73 f3bb 889b c13c
00000060: fefd 233b e578 a53c 5627 153d 2a34 393b
00000070: 5599 28bb 363e 0e3d 9428 ed3c eb89 733d
00000080: 405f 5cbd 8db4 4cbd c774 473d 9d68 c13c
00000090: 0c46 863d e323 58bd 7b0f 2b3c 2371 efbb
000000a0: e410 643d 8e78 793d c72b 2cbd 73b7 393d
000000b0: 0ab0 c13c 189c 673d 74b7 25bd fdef de3b
000000c0: 19b8 913c 933f 0a3b 03b1 a33c 8ba9 7d3d
000000d0: 5ca5 81bd 0cb7 673a c2a7 543a 0351 873d
000000e0: d1b1 88bd e0e5 e7bc 7738 61bd 96ec 74bc
000000f0: a1f3 0dbd a858 09bd 46fe 83bc 5449 29bc
00000100: 8d29 333d c9e6 5d3d 598f 9c3c 8a78 4b3d
00000110: 56c1 0f3d 4ef0 603d 3ab5 87bd 2ce1 85bb
00000120: 6fa1 ed39 68cc 62bd a4fe 80bd 7a33 d9bc
00000130: f922 8f3c af30 b5bc 232c b93c 4aac bf3c
00000140: 2950 84bc 82ee e03c 448e 823d 430c 5e3d
00000150: 6254 fe3c d65a 763d ac8d f33b 46a4 4ebd
00000160: a0a2 a33c 479b 463c b10d 813d 091f 86bd
00000170: 24f7 fa3c 7c62 183d 31aa 5a3d b995 25bb
00000180: b21f 133d f2b0 e73c 7824 83bd a530 703a
00000190: 203b 823d 9be0 d53c 9ae0 e73c b9db cfbc
000001a0: 6c76 203d 8186 50bd 92a5 25bc 5dfd 69bd
000001b0: 8a96 693b 69bc 16bd 076c 1f3d ca1d 9fbc
000001c0: 3bc0 0c3d 5137 14bc f355 7d3d 205e 36bd
000001d0: ed3f c73c a79f 56bd 44b5 a83c ea0b ab3c
000001e0: fe1b bdbc 166c 7dbd 9d6d f63c ecd0 8fbb
000001f0: 7232 1bbd 1143 49bd 8930 523d b61c 733c
00000200: 2965 39bc 152f 17bb 6519 1d3d a662 5e3d
00000210: 96da 4cbd 2c2d 273c 5d69 63bc 7923 373d
00000220: 6ea8 993c 2bdf 423d 01d9 cabb 8775 96bb
00000230: 51d7 473d 4160 523d 6940 4dbd 0ed5 9aba
00000240: dc08 1dbc 3349 0ebd 1e76 89bc a993 57bd
00000250: c275 9e3c 3988 e1bc 78db 143d 5498 1d3c
00000260: 07fd e03b 2c60 4a3d 2006 3a3d e9b3 16bd
00000270: a36b 57bd 98a5 5ebd 522f 563d db2d 85bb
00000280: 5a04 ec3c 36ee 603a f03f 6ebd bd38 f9bc
00000290: b61f b53c d417 afbc 17c8 2cbb d876 1cbd
000002a0: 6b7b 2ebc 657e 823d 53f3 ffbb 73d6 d23c
000002b0: 3676 e1bc 4bf4 57bd 985a 133d 160d 2dbd
000002c0: 5ece de3c eb4a 163d c617 6abd 2210 88bd
000002d0: f693 cfbb 571f 64bd 406e d03b 087b 8cba
000002e0: b359 d83c 4fd9 78bd e0e8 7b3c 03a2 08bc
000002f0: 33d8 02bd 1f3e edbc c64b debc 9ff8 45bd
00000300: 3fdd 05bd 8d0d 323c 9e0d 9b3c 6ca8 b8bc
00000310: bb82 af3b cda9 63bd a1b2 aebc 9c89 b5bc
00000320: cb92 95bb da92 063d 59f5 cc3b 413c 913c
00000330: 516f 4d3d 202b 12bd 886b e93c 1f2c ea3c
00000340: 48f9 723d e3d3 fcbc b6a0 84bd 0a2f 503c
00000350: 6388 25bc 328b 223c e6a5 20bd 6217 abbc
00000360: 8fea 823d 656f 863d 41c2 dcb9 7748 d2ba
00000370: 39dc 89bd 7f3e 1e3d 571e 9dbc 7680 7ebd
00000380: 206e 06bd 4246 19bc 9d03 b3bc 1075 86bd
00000390: 9349 74bd 2a96 383d 1ff5 7fbc 76b5 fd3a
000003a0: 751e 6e3d b4da 9abc 277a 42bd 7332 c63c
000003b0: 1801 173d cf30 873d 3f7c 2bbd 00c9 593c
000003c0: 2ab8 c1bc 7619 3ebd 5bdd 963c f0a8 4fbd
000003d0: d004 bb3c 18fe 0b3d 8bed 13bc 1e60 52bd
000003e0: f855 73bc 28f6 2c3d f7b2 973a 9794 ad3c
000003f0: 630c febc 1181 bebb f54d 3eba fef7 3ebd

weight f4 [512]
0.9127157 0.9467935 0.8969839 1.0166752 1.0886087 0.84746474 0.8444876 1.0014402
0.9593683 0.8703458 1.1467633 1.1373504 1.0602344 0.8677364 0.72260755 0.9772645
1.0598332 1.0673615 1.0139036 1.2269843 0.99685776 0.9886978 0.9868244 0.86116433
1.1124662 0.75786436 0.86662334 0.9946807 0.8088598 0.904494 0.86405486 0.9056365
0.8960324 0.91294825 1.0008278 0.8478136 0.84625375 1.0314207 0.99398404 0.94010466
0.9418903 0.9659899 0.9517771 0.8914326 0.804581 1.0146294 1.0187707 0.8464413
0.7327837 0.98378056 1.0780687 0.76607126 0.852227 0.87461466 0.8974276 0.9204828
0.8681609 1.0045545 0.98611736 1.1244024 0.8580714 0.9610172 0.88846016 0.9165571
1.032967 1.0211798 0.9560023 0.97548 0.8474926 0.87750524 0.90055865 0.9636505
0.95216364 0.99279845 0.9461443 0.75900066 1.0456102 1.1562625 1.1036583 0.9083342
0.87036806 1.0397248 1.0517925 0.9065935 1.116355 0.9278938 1.0198901 0.925927
0.90507174 0.8767459 0.9767677 0.9526209 0.8038896 0.97834986 0.8832348 0.95833135
0.9103033 1.0450385 0.9914926 0.8647806 0.9782936 0.98973995 0.9961539 0.8291183
1.0739617 0.86868083 1.0529155 0.85358864 1.0754396 1.1071773 0.76412266 1.0062151
1.1156347 0.932627 1.1624855 0.81565607 0.94172525 1.0074495 0.9504 1.0212376
0.956782 1.0356967 0.8710712 1.0021653 1.0975062 0.9684266 1.0441543 0.9288054
0.89698654 0.74988365 1.0367074 0.9798501 0.91026086 0.9232308 0.99114305 0.7986106
0.9210743 1.0509698 0.98804253 1.1588726 1.1457988 0.9859834 0.8644545 0.9854499
1.0482382 0.84728587 1.0108435 0.9125872 1.0193175 1.0259631 1.0340487 0.69836456
0.96287817 0.8185131 0.92936707 0.93765223 0.7980644 0.7345726 0.95289946 0.98952657
0.9848864 1.0806941 0.9063783 0.8822093 0.9152551 0.937491 0.9959808 0.82962054
1.1198851 1.1164333 0.8689254 0.90799814 0.99987 1.1376255 0.8974803 1.0084443
1.0713583 0.8312773 0.9456392 0.88747066 0.86762214 1.003051 0.9939846 0.96706605
0.91750777 0.93024486 0.95033413 0.7852119 0.98746675 0.98562557 0.77390873 0.8339742
0.9570966 0.9202231 1.0006263 0.8999543 0.86188215 1.020514 0.8538054 0.92002165
1.0081661 1.1476605 1.0025831 1.150446 0.9357235 1.1019313 0.70670015 0.9865023
0.92744845 1.0284951 1.0011331 0.9940732 0.9722934 0.85330474 1.1783077 0.9482353
0.98127913 1.2305459 0.8940967 0.8440907 1.0328028 1.1245029 1.1550738 0.8766786
0.89058065 1.047646 0.92902946 0.9890124 0.8263301 0.8689719 0.9847045 1.010851
0.8533166 0.92525876 0.94989824 1.0091734 0.92982787 1.1544907 0.9637842 0.8960626
1.1981897 0.7684507 0.9535012 0.82484865 0.968193 0.87924457 0.8775425 0.985219
0.9780608 0.85317624 1.0166396 1.1064576 0.96250147 0.95207286 1.003166 0.9955841
00000000: bca7 693f 0f61 723f bda0 653f 6a22 823f
00000010: 8857 8b3f 73f3 583f 5730 583f 312f 803f
00000020: 2999 753f fbce 5e3f 24c9 923f b394 913f
00000030: c3b5 873f f923 5e3f cffc 383f 022e 7a3f
00000040: 9da8 873f 4d9f 883f 98c7 813f d20d 9d3f
00000050: 1232 7f3f 4d1b 7d3f 86a0 7c3f 4475 5c3f
00000060: 4b65 8e3f 6603 423f 07db 5d3f 65a3 7e3f
00000070: 7011 4f3f eb8c 673f b332 5d3f cbd7 673f
00000080: 6162 653f fab6 693f 201b 803f 500a 593f
00000090: 16a4 583f 9805 843f bd75 7e3f b3aa 703f
000000a0: b91f 713f 1d4b 773f aaa7 733f ed34 643f
000000b0: 05f9 4d3f 60df 813f 1467 823f 61b0 583f
000000c0: b697 3b3f 0bd9 7b3f 28fe 893f 3f1d 443f
000000d0: 8c2b 5a3f bfe6 5f3f d1bd 653f c3a4 6b3f
000000e0: cb3f 5e3f 3e95 803f 3072 7c3f 6bec 8f3f
000000f0: 91aa 5b3f 3905 763f 2072 633f 7ca3 6a3f
00000100: 4338 843f 05b6 823f 91bc 743f 0fb9 793f
00000110: 46f5 583f 2fa4 603f 038b 663f cdb1 763f
00000120: ffc0 733f 0a28 7e3f 8336 723f de4d 423f
00000130: 8ed6 853f 6900 943f ad44 8d3f 9788 683f
00000140: 71d0 5e3f b415 853f 23a1 863f 8316 683f
00000150: b8e4 8e3f 738a 6d3f c28b 823f 8d09 6d3f
00000160: c8b2 673f 6b72 603f 730d 7a3f f7de 733f
00000170: b5cb 4d3f 2375 7a3f ad1b 623f 3455 753f
00000180: a309 693f d2c3 853f 76d2 7d3f 4362 5d3f
00000190: 7371 7a3f 995f 7d3f f103 7f3f 1941 543f
000001a0: 9477 893f de61 5e3f efc5 863f c984 5a3f
000001b0: 01a8 893f fcb7 8d3f 8b9d 433f a8cb 803f
000001c0: 1ecd 8e3f a5c0 6e3f 53cc 943f d6ce 503f
000001d0: e814 713f 1bf4 803f 6a4d 733f eab7 823f
000001e0: aaef 743f b691 843f 86fe 5e3f f446 803f
000001f0: 157b 8c3f ceea 773f d9a6 853f 31c6 6d3f
00000200: e9a0 653f 60f8 3f3f d4b2 843f 75d7 7a3f
00000210: db06 693f db58 6c3f 8dbb 7d3f bf71 4c3f
00000220: 86cb 6b3f 2e86 863f 5bf0 7c3f f055 943f
00000230: 89a9 923f 6869 7c3f e44c 5d3f 7246 7c3f
00000240: ab2c 863f bae7 583f 5263 813f 519f 693f
00000250: ff78 823f c252 833f b55b 843f 05c8 323f
00000260: 2f7f 763f 138a 513f 00eb 6d3f fa09 703f
00000270: f34d 4c3f f30c 3c3f 38f1 733f 9d51 7d3f
00000280: 8421 7c3f 2f54 8a3f 6908 683f 78d8 613f
00000290: 294e 6a3f 69ff 6f3f 99f8 7e3f 0362 543f
000002a0: 6558 8f3f 49e7 8e3f e571 5e3f 9172 683f
000002b0: 7bf7 7f3f b69d 913f 45c1 653f b414 813f
000002c0: 4522 893f 97ce 543f 6915 723f 4731 633f
000002d0: 7c1c 5e3f fa63 803f c675 7e3f a491 773f
000002e0: cae1 6a3f 8724 6e3f 1949 733f a603 493f
000002f0: 9fca 7c3f f551 7c3f e21e 463f 557f 553f
00000300: 4804 753f be93 6b3f 8614 803f 6863 663f
00000310: 4fa4 5c3f 34a0 823f fe92 5a3f 8a86 6b3f
00000320: 960b 813f 8ae6 923f a554 803f d141 933f
00000330: 938b 6f3f 160c 8d3f 4dea 343f 6a8b 7c3f
00000340: 436d 6d3f baa5 833f 2125 803f 957b 7e3f
00000350: 38e8 783f 2e72 5a3f c9d2 963f 8cbf 723f
00000360: 1c35 7b3f 8782 9d3f 85e3 643f 5416 583f
00000370: e232 843f b6ef 8f3f 75d9 933f 026e 603f
00000380: 18fd 633f 4419 863f e0d4 6d3f eb2f 7d3f
00000390: 5f8a 533f f174 5e3f 9815 7c3f 9163 813f
000003a0: f572 5a3f c2dd 6c3f 882c 733f 982c 813f
000003b0: 3309 6e3f 5ac6 933f 90ba 763f 5c64 653f
000003c0: 485e 993f 2fb9 443f a818 743f 4829 533f
000003d0: 7fdb 773f 2c16 613f a0a6 603f 5037 7c3f
000003e0: 3162 7a3f c269 5a3f 3f21 823f 67a0 8d3f
000003f0: 7f66 763f 0cbb 733f be67 803f 99de 7e3f

bias f4 [512]
-0.1507015 0.16630536 0.09044298 -0.04484194 0.0063860617 0.57251287 -0.046008117 -0.26723072
0.03447061 -0.02115718 -0.032551497 -0.0055483156 -0.4144547 0.009235422 -0.1796919 -0.01989643
-0.10158205 -0.42832235 -0.01554276 0.012301603 -0.35937077 -0.033203356 -0.04049604 -0.13086955
-0.1976281 0.01777367 -0.09452278 -0.026483156 0.002169006 -0.22120506 -0.053916465 0.09000882
-0.09839712 0.047694746 -0.04118738 -0.18224692 -0.09821948 0.122545876 -0.12864693 -0.014898109
0.053558957 0.00045186857 -0.10136104 -0.099208504 -0.16746819 -0.027502257 0.009611721 -0.075876415
-0.0073351203 -0.5613008 -0.2408128 0.0038927316 0.07346074 0.024088344 -0.090867504 -0.50258094
-0.27411655 -0.10381022 -0.015062872 0.02794181 -0.10209103 -0.26305383 0.04268228 -0.020028926
0.016762987 -0.16343121 -0.02519774 -0.11630891 -0.09389119 -0.108922325 -0.14102006 0.04823542
-0.3768359 -0.06512247 0.03726608 0.01903343 0.08464098 0.044822525 -0.08487744 0.3378884
0.07792274 0.0056625707 -0.024042195 -0.022788778 0.019741727 0.13377857 0.13819578 -0.20977576
-0.26773754 -0.2742656 -0.061176118 -0.013876804 -0.29185995 -0.024119623 -0.06170477 -0.01702842
-0.08601382 -0.11508005 0.035189267 -0.05241908 -0.07033676 0.13523678 -0.39733765 0.048945434
-0.26855296 0.34219578 -0.17290607 0.016117603 -0.24162379 -0.041386884 0.09022432 0.03072051
-0.12402547 -0.021234736 -0.02448227 0.037059207 -0.35112137 -0.034558397 -0.2533903 -0.08562085
0.13296029 -0.0088120345 -0.17392202 -0.04547375 -0.4046405 -0.053269133 0.12634134 -0.07982848
-0.055602744 -0.0100670485 -0.023128362 -0.08148023 -0.09220655 0.007824478 -0.60354066 -0.06394261
-0.09349555 -0.018798681 -0.0875915 0.07062021 -0.13539812 -0.016326277 -0.08059519 0.06454983
0.020517314 0.020089615 -0.06939186 0.016632088 -0.03785096 -0.13562636 0.045243774 0.004835763
0.48297316 -0.1378333 0.16991971 -0.027523875 -0.06952002 -0.011682316 -0.13353962 -0.011561594
-0.3957995 -0.38311625 -0.15488814 -0.057443578 0.018698836 0.037302718 -0.0319351 -0.095749296
0.11054842 0.08794775 -0.022922913 -0.031830277 -0.06771428 -0.09539157 -0.36459845 -0.037446145
-0.09010574 -0.12963781 -0.2907048 -0.10155446 0.014661526 -0.0589313 -0.016511805 -0.055380657
-0.092555754 0.034712054 -0.2616228 -0.014139053 -0.507501 -0.06819378 0.0638158 0.10309964
-0.22279023 -0.08137571 -0.298084 -0.032093406 -0.04896018 -0.007962113 -0.03327423 -0.06899363
0.18966495 -0.035949484 -0.19298355 0.05377893 -0.005029738 -0.25163427 0.046618145 0.055077653
-0.0020020935 0.005002145 -0.15630692 0.016974807 0.0150602115 -0.09945028 -0.29506257 -0.031902514
-0.27876028 0.04214421 -0.0053617754 -0.051514283 -0.051075686 -0.053896688 -0.18265961 -0.11042486
0.008204998 -0.4230256 -0.055794857 -0.050167516 -0.07634178 -0.17513296 0.102696866 -0.24205242
0.0366783 -0.36814427 -0.20639065 -0.01470188 0.43865642 -0.32874295 -0.3978913 -0.21632944
0.03298734 -0.20622168 0.035061054 0.10832662 -0.08144548 0.20269644 -0.013945489 -0.10931522
-0.021315197 -0.19264746 -0.07704227 -0.067828126 -0.06722761 0.007377514 0.0708273 -0.06099558
00000000: 7e51 1abe f44b 2a3e 2b3a b93d 2fac 37bd
00000010: 2b42 d13b 3490 123f 0273 3cbd 77d2 88be
00000020: 0e31 0d3d d351 adbc b854 05bd a5ce b5bb
00000030: 6833 d4be 2b50 173c 2701 38be d7fd a2bc
00000040: 400a d0bd 114d dbbe 0fa7 7ebc aa8c 493c
00000050: 72ff b7be 3e00 08bd 2ddf 25bd ab02 06be
00000060: 055f 4abe 169a 913c 2995 c1bd 34f3 d8bc
00000070: e225 0e3b 9483 62be 83d7 5cbd 8b56 b83d
00000080: 6e84 c9bd 915b 433d 19b4 28bd f09e 3abe
00000090: 4b27 c9bd 55f9 fa3d 05bc 03be 3317 74bc
000000a0: a360 5b3d c6e8 ec39 6096 cfbd d42d cbbd
000000b0: c87c 2bbe 6a4c e1bc 7b7a 1d3c 1865 9bbd
000000c0: 735b f0bb 69b1 0fbf a197 76be 331d 7f3b
000000d0: 9672 963d eb54 c53c be18 babd 25a9 00bf
000000e0: 0159 8cbe 749a d4bd 44ca 76bc 39e6 e43c
000000f0: 1a15 d1bd feae 86be 9dd3 2e3d b413 a4bc
00000100: 8852 893c 835a 27be 7e6b cebc 5e33 eebd
00000110: 064a c0bd ab12 dfbd 9067 10be 8192 453d
00000120: a3f0 c0be ee5e 85bd 51a4 183d ffeb 9b3c
00000130: 4058 ad3d d397 373d 39d4 adbd b5ff ac3e
00000140: f595 9f3d 168d b93b 23f4 c4bc 88af babc
00000150: 67b9 a13c 40fd 083e 3283 0d3e 75cf 56be
00000160: e514 89be 8a6c 8cbe cf93 7abd 895b 63bc
00000170: ab6e 95be 8496 c5bc 24be 7cbd 2f7f 8bbc
00000180: 0328 b0bd 17af ebbd 9f22 103d 64b5 56bd
00000190: b80c 90bd 837b 0a3e d76f cbbe 027b 483d
000001a0: c67f 89be 4934 af3e 4a0e 31be 1009 843c
000001b0: 3a6c 77be 4b85 29bd 87c7 b83d 94a9 fb3c
000001c0: 1101 febd 78f4 adbc 0b8f c8bc 65cb 173d
000001d0: 2ec6 b3be 1b8d 0dbd 60bc 81be fc59 afbd
000001e0: be26 083e 5a60 10bc 9d18 32be af42 3abd
000001f0: 0a2d cfbe bc30 5abd a05f 013e 1d7d a3bd
00000200: b4bf 63bd 43f0 24bc b177 bdbc 1bdf a6bd
00000210: cad6 bcbd 3d32 003c a481 1abf 58f4 82bd
00000220: 987a bfbd b1ff 99bc 2c63 b3bd 54a1 903d
00000230: cea5 0abe afbe 85bc 170f a5bd b432 843d
00000240: ed13 a83c fa92 a43c 521d 8ebd 0440 883c
00000250: 9c09 1bbd a3e1 0abe 8951 393d 5275 9e3b
00000260: 4248 f73e 2c24 0dbe 6fff 2d3e c079 e1bc
00000270: 8360 8ebd 2f67 3fbc 9cbe 08be d76c 3dbc
00000280: 3ba6 cabe d027 c4be ff9a 1ebe f549 6bbd
00000290: 4d2e 993c bcca 183d 61ce 02bd 3518 c4bd
000002a0: 3667 e23d f31d b43d d5c8 bbbc 7760 02bd
000002b0: c9ad 8abd a85c c3bd a6ac babe 2161 19bd
000002c0: 5c89 b8bd c6bf 04be 42d7 94be c9fb cfbd
000002d0: e636 703c f261 71bd c443 87bc d4d6 62bd
000002e0: df8d bdbd 3a2e 0e3d 6cf3 85be 7da7 67bc
000002f0: 96eb 01bf 2ea9 8bbd dcb1 823d e725 d33d
00000300: 1f23 64be 4fa8 a6bd 779e 98be 6074 03bd
00000310: 788a 48bd 8673 02bc 8f4a 08bd 884c 8dbd
00000320: 8737 423e c43f 13bd 7b9d 45be 4c47 5c3d
00000330: 80d0 a4bb 35d6 80be abf2 3e3d 1b99 613d
00000340: 8e35 03bb 09e9 a33b ec0e 20be c00e 8b3c
00000350: 1bbf 763c 97ac cbbd 7112 97be 36ac 02bd
00000360: abb9 8ebe 689f 2c3d d5b1 afbb a400 53bd
00000370: bd34 51bd c6c2 5cbd 1f0b 3bbe 6e26 e2bd
00000380: 426e 063c d096 d8be 2689 64bd 747c 4dbd
00000390: 1459 9cbd 0e56 33be bc52 d23d 97dc 77be
000003a0: fc3b 163d 687d bcbe 1258 53be 27e0 70bc
000003b0: 9397 e03e ff50 a8be 69b8 cbbe 7785 5dbe
000003c0: bc1d 073d c72b 53be 2e9c 0f3d 59da dd3d
000003d0: e3cc a6bd a88f 4f3e 9f7b 64bc a8e0 dfbd
000003e0: 359d aebc 6045 45be 56c8 9dbd 79e9 8abd
000003f0: a1ae 89bd 13bf f13b e70d 913d 80d6 79bd

running_mean f4 [512]
215.82982 19.52616 39.979996 -55.60251 66.37096 555.7302 -23.70374 -59.11895
106.75976 78.87125 -97.495636 120.222115 291.25327 29.18543 -181.51447 -49.852016
-68.26075 360.62054 -17.931309 939.61633 216.27135 325.80814 32.531876 -14.418605
-4.7434382 145.00447 -51.66696 -392.5229 -6.1898465 -217.88528 -45.68731 30.306103
-51.24632 -109.138954 -44.134132 -274.49728 -59.34756 -58.7839 -5.503885 3.670517
43.55284 -32.556942 -118.23483 -76.239975 16.992954 -55.08718 123.83859 -47.052727
5.236428 744.44055 -174.19249 84.67559 56.192432 100.06921 -86.321205 -132.90163
455.7903 601.3361 49.213535 296.24408 -120.0981 -306.0376 140.20865 -20.074846
13.857292 -24.659447 -1.7296927 -19.703157 -146.19156 -20.035242 6.290016 81.54633
-311.85593 -557.8426 -189.75668 94.577736 201.01163 175.96355 43.807423 775.2769
184.24025 101.69364 21.716396 -65.14788 92.6862 -32.208633 169.78136 -24.613132
-319.35757 -401.79102 12.979697 15.39196 131.09004 -56.785965 -112.919685 -32.55628
-14.617004 -153.22528 55.700974 -20.273642 -94.5443 173.01614 -238.55827 32.39381
-106.4046 319.19006 -149.00517 19.982101 -11.620697 60.7314 276.03708 82.715096
128.06937 -77.3817 36.056267 4.2381077 24.288288 84.199265 246.61937 17.780104
275.2797 -444.33783 -5.345491 -26.184519 223.573 -7.702507 -125.576614 59.78803
-42.40153 5.5545497 104.41468 3.78372 5.0915766 -109.817894 -170.1507 -96.05785
429.29187 25.876915 -52.299767 93.5071 1.5783463 -81.34732 215.657 -52.972435
114.035355 106.627 -101.80952 -85.134346 -71.268135 -123.659294 38.98408 228.2811
533.474 76.732574 158.32697 -127.22792 67.18848 109.60097 -44.400124 129.77394
-30.003347 742.59924 -175.33385 14.910862 33.956966 149.73553 -71.75075 34.55835
329.87827 139.31578 19.512096 14.925866 -261.66357 178.05956 -629.0039 -104.029755
626.34045 -68.253624 -215.51947 -45.39506 46.876156 -13.240105 -52.01573 -89.96323
-22.875557 59.211327 432.23456 267.76978 -7.494993 -425.60913 85.111435 282.92545
-190.0586 -49.364986 -73.27797 -78.29518 -54.099022 74.35126 -31.325884 -161.67819
33.498806 54.401184 -31.690292 62.70137 -60.376305 749.7908 82.75357 -106.43429
75.808044 -27.091208 -9.048536 28.456717 103.697495 -122.34884 -67.91237 -6.1073546
51.35576 208.89734 61.47301 -87.87042 -99.33977 125.32291 55.895485 53.73722
-102.79964 -70.24648 -58.827003 281.53656 -115.35908 66.68405 48.103527 -51.39289
-79.51989 356.64313 22.04665 45.36354 701.75165 -84.17552 613.76135 77.28115
128.46579 -121.7944 -74.90187 -27.491356 47.040485 146.48926 -66.684 -70.90934
31.980974 261.68762 -39.539536 -54.68904 -98.810646 64.02411 129.05779 104.441154
00000000: 6fd4 5743 9335 9c41 84eb 1f42 f868 5ec2
00000010: eebd 8442 bcee 0a44 42a1 bdc1 ce79 6cc2
00000020: ff84 d542 14be 9d42 c4fd c2c2 b971 f042
00000030: 6ba0 9143 c37b e941 b483 35c3 7768 47c2
00000040: 8185 88c2 6e4f b443 5273 8fc1 72e7 6a44
00000050: 7745 5843 71e7 a243 a420 0242 9bb2 66c1
00000060: 3fca 97c0 2501 1143 f8aa 4ec2 ee42 c4c3
00000070: 3913 c6c0 a2e2 59c3 cebf 36c2 e672 f241
00000080: 3bfc 4cc2 2547 dac2 5a89 30c2 a73f 89c3
00000090: e763 6dc2 b722 6bc2 d31f b0c0 c0e9 6a40
000000a0: 1c36 2e42 4f3a 02c2 3c78 ecc2 de7a 98c2
000000b0: 92f1 8741 4659 5cc2 5cad f742 fe35 3cc2
000000c0: d190 a740 321c 3a44 4731 2ec3 e759 a942
000000d0: 0dc5 6042 6f23 c842 75a4 acc2 d1e6 04c3
000000e0: 29e5 e343 8355 1644 a9da 4442 3e1f 9443
000000f0: 3a32 f0c2 d004 99c3 6a35 0c43 4999 a0c1
00000100: 78b7 5d41 8c46 c5c1 9266 ddbf 11a0 9dc1
00000110: 0a31 12c3 2d48 a0c1 d047 c940 b917 a342
00000120: 8fed 9bc3 ed75 0bc4 b6c1 3dc3 cd27 bd42
00000130: fa02 4943 abf6 2f43 cd3a 2f42 b9d1 4144
00000140: 813d 3843 2563 cb42 2ebb ad41 b74b 82c2
00000150: 565f b942 a4d5 00c2 07c8 2943 b2e7 c4c1
00000160: c5ad 9fc3 40e5 c8c3 d7ac 4f41 7845 7641
00000170: 0d17 0343 d424 63c2 e1d6 e1c2 a139 02c2
00000180: 40df 69c1 ac39 19c3 cccd 5e42 6b30 a2c1
00000190: ae16 bdc2 2204 2d43 eb8e 6ec3 4393 0142
000001a0: 28cf d4c2 5498 9f43 5301 15c3 58db 9f41
000001b0: 60ee 39c1 f4ec 7242 bf04 8a43 216e a542
000001c0: c211 0043 6ec3 9ac2 9e39 1042 949e 8740
000001d0: 6a4e c241 0666 a842 8f9e 7643 a73d 8e41
000001e0: cda3 8943 3e2b dec3 430e abc0 e579 d1c1
000001f0: b092 5f43 f07a f6c0 3a27 fbc2 f126 6f42
00000200: 2b9b 29c2 dfbe b140 51d4 d042 7828 7240
00000210: 32ee a240 c3a2 dbc2 9426 2ac3 9f1d c0c2
00000220: 5ca5 d643 ec03 cf41 f632 51c2 a303 bb42
00000230: 4007 ca3f d4b1 a2c2 31a8 5743 c6e3 53c2
00000240: 1a12 e442 0641 d542 799e cbc2 c944 aac2
00000250: 4989 8ec2 8f51 f7c2 b3ef 1b42 f647 6443
00000260: 565e 0544 1477 9942 b453 1e43 b274 fec2
00000270: 8060 8642 b233 db42 ba99 31c2 21c6 0143
00000280: db06 f0c1 5aa6 3944 7755 2fc3 e492 6e41
00000290: efd3 0742 4cbc 1543 6280 8fc2 c03b 0a42
000002a0: 6bf0 a443 d750 0b43 c618 9c41 59d0 6e41
000002b0: f0d4 82c3 3f0f 3243 4040 1dc4 3c0f d0c2
000002c0: ca95 1c44 db81 88c2 fc84 57c3 8b94 35c2
000002d0: 2f81 3b42 78d7 53c1 1c10 50c2 2ced b3c2
000002e0: 2401 b7c1 66d8 6c42 061e d843 88e2 8543
000002f0: fcd6 efc0 f8cd d4c3 0e39 aa42 7576 8d43
00000300: 000f 3ec3 bf75 45c2 528e 92c2 2297 9cc2
00000310: 6665 58c2 d8b3 9442 699b fac1 9ead 21c3
00000320: c7fe 0542 d09a 5942 b885 fdc1 34ce 7a42
00000330: 5681 71c2 9c72 3b44 d481 a542 5bde d4c2
00000340: b89d 9742 cbba d8c1 cec6 10c1 5ba7 e341
00000350: 1e65 cf42 9bb2 f4c2 22d3 87c2 736f c3c0
00000360: 4c6c 4d42 b8e5 5043 5de4 7542 a8bd afc2
00000370: f6ad c6c2 54a5 fa42 fa94 5f42 eaf2 5642
00000380: 6a99 cdc2 337e 8cc2 da4e 6bc2 aec4 8c43
00000390: d9b7 e6c2 3c5e 8542 036a 4042 5292 4dc2
000003a0: 2f0a 9fc2 5252 b243 8a5f b041 4474 3542
000003b0: 1b70 2f44 de59 a8c2 ba70 1944 f38f 9a42
000003c0: 3e77 0043 bc96 f3c2 c2cd 95c2 4cee dbc1
000003d0: 7529 3c42 407d 1243 355e 85c2 95d1 8dc2
000003e0: 09d9 ff41 04d8 8243 7c28 1ec2 94c1 5ac2
000003f0: 0d9f c5c2 580c 8042 cb0e 0143 dfe1 d042

running_var f4 [512]
273434.9 1.0610949e+06 548868.94 251553.7 583488.5 259337.7 557902.1 451442.5
734964.06 833816.6 275591.28 458681.34 792043.44 1.6921952e+06 678020.7 619291.9
369151.88 435548.47 126558.85 736101.7 417014.16 674479.44 287653.1 378783.78
241272.33 2.2058662e+06 299100.3 226348.42 452457.06 368915.8 449019.28 776657.56
393928.53 640305.56 586183.4 807065.2 658190.75 355090.16 238719.8 911925.94
441011.72 404364.0 250135.9 539341.4 393840.03 698487.6 449004.66 638944.8
1.3484312e+06 1.5233085e+06 352299.84 1.1140989e+06 404025.0 1.0273744e+06 346840.28 1.2594875e+06
583324.1 528993.0 235297.52 587783.06 589193.4 570822.56 847288.25 1.9886422e+06
230211.5 760493.9 699032.5 220679.39 566932.7 588786.0 206199.89 469649.44
506449.1 250803.47 731697.6 1.2886498e+06 483694.28 521997.16 165663.78 809682.4
984239.25 838954.7 843127.5 326948.3 494703.62 423168.44 258698.98 739439.5
633609.7 911480.6 261014.38 188392.77 541647.56 149025.0 551595.5 565469.94
405601.72 197939.95 404135.78 409537.72 191406.27 365503.22 352170.6 450968.47
222172.31 517477.0 223267.5 461394.03 337639.8 345520.6 2.5339302e+06 540570.1
448794.88 559335.5 137974.05 635297.44 975879.75 275837.88 492959.8 451184.12
267817.44 157451.95 251027.2 820108.7 429691.5 310576.62 332747.78 559213.0
773813.6 802188.25 959178.25 980459.0 235643.36 713711.75 371381.28 475552.44
693406.5 694756.4 341679.0 283099.0 544716.44 279440.88 788771.94 344130.44
705427.0 632706.5 318475.6 1.1684404e+06 389293.56 381750.5 174475.48 2.5502372e+06
167388.28 1.2298035e+06 249814.73 281579.62 242347.42 1.99386e+06 185293.84 1.3537809e+06
862897.25 570829.06 517150.7 295818.62 433021.44 481763.8 433400.94 608792.2
301636.78 488482.1 836382.6 1.00057656e+06 343748.0 517745.44 912703.6 408006.6
462919.47 332189.34 449468.2 454044.25 853964.56 303853.47 401667.1 334022.47
564210.56 229739.72 376112.0 1.8109539e+06 253201.47 177252.34 606049.0 1.3760089e+06
333664.22 138484.89 293182.1 393187.2 793264.75 801544.8 609577.0 505709.0
517060.94 339433.53 328399.66 284810.78 263158.84 635193.75 1.7494582e+06 570231.75
579995.3 320708.72 589771.56 275299.1 247970.3 601738.6 276781.12 616976.5
763571.44 1.0274575e+06 1.2974928e+06 284396.47 261902.36 642851.1 630622.75 257119.9
826819.4 778684.44 248637.55 911858.25 607789.56 448958.66 235583.42 291067.78
749223.2 707431.6 351655.16 300597.34 475388.22 445642.03 381875.66 607714.1
778423.3 462494.2 649559.25 521783.3 696663.06 1.4272638e+06 535412.6 364604.0
708868.94 698373.94 424093.7 269067.66 501818.72 489010.1 335383.97 286032.84
00000000: 5d83 8548 3787 8149 4f00 0649 6da8 7548
00000010: 0874 0e49 6d42 7d48 e234 0849 506e dc48
00000020: 416f 3349 8a91 4b49 e990 8648 2bf7 df48
00000030: b75e 4149 1a91 ce49 4b88 2549 be31 1749
00000040: fc3f b448 8fab d448 6d2f f747 5bb6 3349
00000050: c59e cb48 f7aa 2449 a374 8c48 f9f3 b848
00000060: 159e 6b48 a9a2 064a 8a0b 9248 1b0b 5d48
00000070: 22ed dc48 7a22 b448 693f db48 199d 3d49
00000080: 1159 c048 1953 1c49 761c 0f49 9309 4549
00000090: ecb0 2049 4562 ad48 f31f 6948 5fa3 5e49
000000a0: 7756 d748 8071 c548 fa45 7448 d6ac 0349
000000b0: 014e c048 7a87 2a49 953d db48 0dfe 1b49
000000c0: 7a9a a449 64f3 b949 7b05 ac48 97ff 8749
000000d0: 2047 c548 e6d2 7a49 095b a948 fcbe 9949
000000e0: c269 0e49 1026 0149 61c8 6548 7180 0f49
000000f0: 96d8 0f49 695c 0b49 84db 4e49 12c1 f249
00000100: e0d0 6048 deaa 3949 88a9 2a49 d981 5748
00000110: 4b69 0a49 20bf 0f49 f95d 4948 2e52 e548
00000120: 234a f748 deec 7448 1aa3 3249 4e4e 9d49
00000130: c92d ec48 a5e1 fe48 f2c7 2148 26ad 4549
00000140: f44a 7049 abd2 4c49 78d7 4d49 8aa4 9f48
00000150: f48d f148 0ea0 ce48 bfa2 7c48 f886 3449
00000160: 9bb0 1a49 8a87 5e49 98e5 7e48 31fa 3748
00000170: f93c 0449 4088 1148 b8aa 0649 df0d 0a49
00000180: 370c c648 fd4c 4148 f954 c548 37f8 c748
00000190: 91eb 3a48 e777 b248 53f5 ab48 0f33 dc48
000001a0: 14f7 5848 a0ac fc48 e008 5a48 414a e148
000001b0: fadc a448 13b6 a848 a9a8 1a4a a2f9 0349
000001c0: 5c23 db48 788e 0849 83bd 0648 171a 1b49
000001d0: 7c40 6e49 bcaf 8648 fab3 f048 044e dc48
000001e0: 2ec5 8248 fdc2 1948 cd24 7548 cb38 4849
000001f0: 70cf d148 14a6 9748 7979 a248 d086 0849
00000200: 5aeb 3c49 c4d8 4349 a42c 6a49 b05e 6f49
00000210: d71e 6648 fc3e 2e49 a956 b548 0e34 e848
00000220: e849 2949 469e 2949 e0d5 a648 603b 8a48
00000230: c7fc 0449 1c72 8848 3f92 4049 4e08 a848
00000240: 3039 2c49 2878 1a49 7381 9b48 c3a1 8e49
00000250: b215 be48 d066 ba48 df62 2a48 75a7 1b4a
00000260: 1277 2348 5c1f 9649 aff5 7348 747d 8948
00000270: dbaa 6c48 2064 f349 76f3 3448 a741 a549
00000280: 14ab 5249 d15c 0b49 d683 fc48 5471 9048
00000290: ae6f d348 7a3c eb48 1e9f d348 83a1 1449
000002a0: 9948 9348 4384 ee48 ea31 4c49 0948 7449
000002b0: 80d8 a748 2ece fc48 fad3 5e49 d338 c748
000002c0: ef08 e248 ab33 a248 8677 db48 88b3 dd48
000002d0: c97c 5049 af5d 9448 6320 c448 cf18 a348
000002e0: 29bf 0949 ee5a 6048 00a6 b748 4f10 dd49
000002f0: 5e44 7748 1619 2d48 10f6 1349 47f8 a749
00000300: 07ec a248 393d 0748 c327 8f48 66fc bf48
00000310: 0cab 4149 8db0 4349 90d2 1449 a0ed f648
00000320: 9e78 fc48 31bd a548 f559 a048 5911 8b48
00000330: db7e 8048 9c13 1b49 928e d549 7c37 0b49
00000340: b599 0d49 9798 9c48 b9fc 0f49 636c 8648
00000350: 9328 7248 aae8 1249 a425 8748 08a1 1649
00000360: 376b 3a49 18d8 7a49 a662 9e49 8fdd 8a48
00000370: 97c3 7f48 32f2 1c49 ecf5 1949 fa17 7b48
00000380: 36dc 4949 c71b 3e49 63cf 7248 249f 5e49
00000390: d962 1449 d537 db48 db0f 6648 791f 8e48
000003a0: 73ea 3649 7ab6 2c49 e5b4 ab48 abc6 9248
000003b0: 871f e848 4199 d948 7576 ba48 225e 1449
000003c0: 750b 3e49 c6d3 e148 7495 1e49 eac6 fe48
000003d0: 7115 2a49 fe39 ae49 4ab7 0249 8007 b248
000003e0: 4f10 2d49 5f80 2a49 b613 cf48 7561 8348
000003f0: 5707 f548 43c6 ee48 ffc2 a348 1baa 8b48

weight f4 [128, 512]
0.035645954 0.01607785 -0.059841517 -0.018552607 -0.039695222 -0.29602444 -0.026191019 -0.2298126
-0.081863925 0.12190197 0.0072120894 0.0053210696 -0.25722757 0.118035324 0.042227164 0.027844451
0.057876684 0.15566571 -0.0024568466 0.054543566 0.033950195 -0.1206275 -0.09469753 -0.06157889
-0.13525711 0.09572521 -0.06599129 -0.026123298 -0.12188324 -0.119241714 -0.078238845 0.09431496
-0.10561917 0.06385059 -0.08628905 0.04953364 0.12257078 0.13518237 0.00025769288 0.055309217
0.090400666 -0.08793004 -0.061104313 -0.0011484468 -0.04339475 0.0013329219 0.041936547 -0.16227421
0.059390258 -0.35405603 -0.06648461 -0.09654594 -0.014233913 -0.104770966 -0.0047470895 -0.19078872
-0.106812395 0.034393832 0.01889766 0.0919038 -0.12383828 -0.23596296 0.032260884 0.043026127
0.02721086 -0.3416563 0.11807152 -0.03721058 -0.03261052 0.103772454 0.079265445 -0.007718244
-0.12668768 0.011461624 0.039387275 -0.05619391 0.09889298 -0.16167031 -0.12453925 -0.1133025
-0.01746601 0.10304845 -0.01694416 0.07981522 0.102205284 0.06459086 -0.27166843 -0.09413615
-0.2010124 -0.15996413 -0.0289363 -0.045785964 -0.014778104 -0.009347042 -0.0048375437 -0.08016709
-0.08921312 -0.18062505 0.0125159295 0.02051804 0.0067040836 -0.21821025 -0.27281624 -0.03194022
0.02228574 -0.1640334 -0.1143052 0.0017861016 -0.29316285 -0.15501928 0.08577899 0.013328309
-0.30122924 -0.15527214 0.02545472 0.06324908 -0.026711373 -0.15487215 -0.1090985 0.12246153
-0.08530325 0.049260143 -0.1467644 0.04287691 0.03344532 -0.07532472 0.09574284 -0.11709963
0.0018908887 -0.025978338 -0.029854171 -0.004326473 0.023924783 0.094925195 -0.022467375 0.018653443
0.042120967 0.09103303 0.09386277 -0.055157483 -0.31449333 0.058508575 -0.04665283 0.027132101
0.04516142 -0.04612461 -0.007686886 -0.018965373 0.05321554 0.046245087 -0.2012645 0.05611989
-0.16386414 0.0965582 -0.08162585 0.027035113 -0.01739161 -0.013186592 -0.053032238 -0.07820225
-0.21803981 0.017071638 -0.08859234 0.10847089 -0.14774553 -0.0038603002 -0.19392578 0.044028465
0.23278165 -0.006327469 0.09994435 -0.036052875 0.03175719 -0.22114855 -0.06300135 0.085495055
0.19507185 0.018126534 -0.094917774 -0.16349632 0.101738766 -0.072138675 -0.17012689 -0.11034834
-0.14161615 -0.11176329 0.044402238 0.08172701 0.11792836 -0.01994459 0.12448424 -0.16734014
0.058752216 -0.06149095 -0.31662238 -0.03477631 0.058689706 -0.041810196 -0.11386213 0.00738185
0.09321983 0.039676134 0.009881367 0.09591386 -0.115783125 0.03218719 0.016087715 0.0933326
0.07938169 0.06187119 0.005041817 -0.10347319 0.057342168 0.062169246 -0.09212064 -0.012109934
-0.033391558 -0.071592465 -0.0514381 0.0926872 -0.039523613 0.059266374 -0.24964911 -0.13167137
0.049597166 -0.05278124 0.053335276 0.021473514 0.06044405 -0.06829882 -0.011146275 -0.13987426
0.011043886 -0.10642773 0.06187076 0.10859084 -0.039937794 -0.27728242 0.08912295 -0.123956144
0.037579656 0.10573888 0.02907447 -0.023805488 -0.072905175 -0.0010163556 -0.13656864 -0.030167587
-0.05637241 0.027043909 -0.024950078 0.056798 -0.12247946 0.11725005 -0.24632172 -0.26669407
00000000: 7e01 123d b2b5 833c 611c 75bd a3fb 97bc
00000010: 7597 22bd 8490 97be 8c8e d6bc ff53 6bbe
00000020: 46a8 a7bd bda7 f93d 6453 ec3b 5e5c ae3b
00000030: 55b3 83be 81bc f13d 64f6 2c3d 0c1a e43c
00000040: 1a10 6d3d d566 1f3e 0c03 21bb 1369 5f3d
00000050: 5c0f 0b3d 8d0b f7bd c7f0 c1bd 253a 7cbd
00000060: d780 0abe 940b c43d 7126 87bd 8700 d6bc
00000070: ec9d f9bd 0035 f4bd b03b a0bd 3428 c13d
00000080: dd4e d8bd 19c4 823d 50b8 b0bd c9e3 4a3d
00000090: 6406 fb3d 3f6d 0a3e f41a 8739 eb8b 623d
000000a0: fc23 b93d aa14 b4bd 8448 7abd 7b87 96ba
000000b0: b2be 31bd 70b5 ae3a a8c5 2b3d 362b 26be
000000c0: 3343 733d d546 b5be 1529 88bd e1b9 c5bd
000000d0: 5c35 69bc 2992 d6bd 798d 9bbb 1e5e 43be
000000e0: 75c0 dabd 8ce0 0c3d 44cf 9a3c 0f38 bc3d
000000f0: ed9e fdbd 46a0 71be fd23 043d 2a3c 303d
00000100: 4fe9 de3c 93ed aebe 7bcf f13d 1f6a 18bd
00000110: 9c92 05bd a786 d43d ec55 a23d 53e9 fcbb
00000120: 6aba 01be 89c9 3b3c 8d54 213d 962b 66bd
00000130: 6788 ca3d e78c 25be 6f0e ffbd 240b e8bd
00000140: e114 8fbc 110b d33d 7bce 8abc 2976 a33d
00000150: 0151 d13d 3648 843d 2018 8bbe 74ca c0bd
00000160: 32d6 4dbe a3cd 23be d20b edbc 108a 3bbd
00000170: dc1f 72bc 5624 19bc 4284 9ebb a52e a4bd
00000180: 5eb5 b6bd c6f5 38be 9d0f 4d3c 7315 a83c
00000190: eead db3b 8272 5fbe 92ae 8bbe c0d3 02bd
000001a0: 9690 b63c 5ff8 27be d818 eabd a01b ea3a
000001b0: 7119 96be 60bd 1ebe e5ac af3d fb5e 5a3c
000001c0: b83a 9abe a9ff 1ebe 6b86 d03c bc88 813d
000001d0: cfd1 dabc ce96 1ebe 096f dfbd 1ccd fa3d
000001e0: 78b3 aebd 01c5 493d 6849 16be b39f 2f3d
000001f0: f6fd 083d d943 9abd d214 c43d eed1 efbd
00000200: b2d7 f73a 86d0 d4bc bc90 f4bc 16c5 8dbb
00000210: e8fd c33c 2468 c23d 800d b8bc 1bcf 983c
00000220: 0987 2c3d 866f ba3d 203b c03d d0ec 61bd
00000230: 4505 a1be b0a6 6f3d 0a17 3fbd 2444 de3c
00000240: 2efb 383d 29ed 3cbd 46e2 fbbb 455d 9bbc
00000250: 8af8 593d 7d6b 3d3d 4818 4ebe f8dd 653d
00000260: 00cc 27be 4ec0 c53d 742b a7bd be78 dd3c
00000270: da78 8ebc 930c 58bc 5538 59bd 8028 a0bd
00000280: d445 5fbe d2d9 8b3c e76f b5bd fc25 de3d
00000290: 9b4a 17be 17fd 7cbb 7b94 46be 3157 343d
000002a0: 505e 6e3e a856 cfbb a0af cc3d 2eac 13bd
000002b0: d413 023d c474 62be da06 81bd 0818 af3d
000002c0: eac0 473e 197e 943c 4064 c2bd 946b 27be
000002d0: 6a5c d03d 71bd 93bd be35 2ebe 4ffe e1bd
000002e0: d303 11be 27e4 e4bd 1fdf 353d 7e60 a73d
000002f0: 6d84 f13d d662 a3bc 98f1 fe3d 375b 2bbe
00000300: 2aa6 703d efdd 7bbd 541c a2be 9b71 0ebd
00000310: 9e64 703d 2b41 2bbd 8c30 e9bd 72e3 f13b
00000320: 0aea be3d 7183 223d 75e5 213c 7c6e c43d
00000330: b41f edbd b7d6 033d 62ca 833c 2a25 bf3d
00000340: de92 a23d a56c 7d3d d435 a53b c0e9 d3bd
00000350: 9fdf 6a3d 2ea5 7e3d bfa9 bcbd bf68 46bc
00000360: 96c5 08bd 129f 92bd c2b0 52bd c9d2 bd3d
00000370: 83e3 21bd 4cc1 723d 04a4 7fbe dcd4 06be
00000380: 6626 4b3d 2431 58bd 1776 5a3d 39e9 af3c
00000390: 2e94 773d 40e0 8bbd de9e 36bc 333b 0fbe
000003a0: 6af1 343c c8f6 d9bd 326c 7d3d e064 de3d
000003b0: d095 23bd f6f7 8dbe 1886 b63d b8dc fdbd
000003c0: 20ed 193d a08d d83d 952d ee3c ba03 c3bc
000003d0: 4f4f 95bd 3c37 85ba a6d8 0bbe 0422 f7bc
000003e0: c2e6 66bd 308b dd3c 1b64 ccbc 05a5 683d
000003f0: 83d6 fabd cb20 f03d c33b 7cbe 208c 88be

bias f4 [128]
0.14722379 0.019447489 0.29010954 0.18796583 -0.19822024 0.069396816 -0.041853912 -0.4300774
-0.27382725 0.0825838 0.19265394 0.08794354 0.047465082 0.057011545 -0.063998215 -0.09632736
0.019299136 0.13534692 -0.111734726 -0.0057513625 0.008090094 0.2003776 0.0718772 0.0966725
-0.014500054 0.21682008 -0.32701796 0.03622203 0.031675808 0.016329667 -0.013957803 0.053793482
0.12553537 -0.019125702 -0.24381891 0.09238508 -0.037728477 -0.022221992 0.013131357 0.08187944
-0.346905 -0.052708946 0.123034105 0.11737927 -0.0074999086 0.13798402 -0.018432893 -0.06076574
0.19979766 0.19238651 0.063528754 0.07895815 0.030295445 -0.051786922 0.048427124 -0.41725597
0.060853086 0.0139079355 0.20289572 -0.0052225497 -0.08161994 0.08927806 0.008058394 0.0664335
-0.62350684 -0.0007263068 0.13099635 -0.24426696 -0.047015008 -0.03550327 -0.030345753 0.12648351
0.09441305 0.023790047 0.09325628 0.11891024 -0.02887548 0.20727614 -0.24168865 -0.03435133
0.06212432 -0.1052609 -0.039661393 0.07858855 0.09123048 0.027768264 0.14590791 0.14368121
0.0338394 0.18152921 0.057662256 0.09065837 -0.070173375 0.13437779 -0.11450767 -0.013884086
-0.5527858 0.15614621 0.0010813517 0.2041086 -0.04983535 0.1443402 0.1579311 0.1358571
-0.20534602 -0.007790512 0.044136237 0.005526457 -0.041147143 -0.03460362 0.21667725 0.0104058385
0.2046165 0.0102937855 0.17164172 -0.04439061 0.12820025 -0.033628512 0.17582984 0.017900191
-0.0055912193 0.09456313 0.07637217 -0.027175885 -0.041190207 0.024541283 0.10751876 -0.09561592
00000000: d5c1 163e 5750 9f3c 3d89 943e 1d7a 403e
00000010: 3ffa 4abe eb1f 8e3d 026f 2bbd 1b33 dcbe
00000020: 1633 8cbe b221 a93d 1347 453e be1b b43d
00000030: bf6a 423d f084 693d 7f11 83bd 4747 c5bd
00000040: 3919 9e3c 6298 0a3e 2dd5 e4bd ed75 bcbb
00000050: 508c 043c c92f 4d3e 5a34 933d 3bfc c53d
00000060: a291 6dbc 1506 5e3e e66e a7be 8d5d 143d
00000070: 7ebe 013d cbc5 853c 45af 64bc 8e56 5c3d
00000080: 588c 003e 81ad 9cbc aaab 79be 6434 bd3d
00000090: 2d89 1abd e50a b6bc e724 573c 68b0 a73d
000000a0: 889d b1be 56e5 57bd 4ef9 fb3d 8b64 f03d
000000b0: cbc1 f5bb af4b 0d3e 9400 97bc 7fe5 78bd
000000c0: c297 4c3e f800 453e 5d1b 823d d0b4 a13d
000000d0: 272e f83c 861e 54bd 855b 463d 93a2 d5be
000000e0: 1641 793d 1cde 633c e5c3 4f3e ec21 abbb
000000f0: 5b28 a7bd 6ad7 b63d 5b07 043c 490e 883d
00000100: 259e 1fbf a065 3eba e823 063e 1e21 7abe
00000110: cf92 40bd e06b 11bd a897 f8bc e584 013e
00000120: a15b c13d 58e3 c23c 26fd be3d 3687 f33d
00000130: 458c ecbc 3240 543e 3b7d 77be fbb3 0cbd
00000140: 1276 7e3d 0793 d7bd fc73 22bd 09f3 a03d
00000150: 0cd7 ba3d 457a e33c e268 153e 2b21 133e
00000160: 2f9b 0a3d cbe2 393e 422f 6c3d 18ab b93d
00000170: 0fb7 8fbd 559a 093e ff82 eabd 147a 63bc
00000180: 5f83 0dbf cbe4 1f3e 24bc 8d3a d801 513e
00000190: 2720 4cbd ebcd 133e b1b8 213e 201e 0b3e
000001a0: 3a46 52be 8d47 ffbb 33c8 343d 4817 b53b
000001b0: e889 28bd 87bc 0dbd a4e0 5d3e 407d 2a3c
000001c0: fd86 513e 44a7 283c d9c2 2f3e eed2 35bd
000001d0: ed46 033e 0dbe 09bd bd0c 343e 6ca3 923c
000001e0: 8c36 b7bb 50aa c13d 0369 9c3d f69f debc
000001f0: 10b7 28bd cd0a c93c cc32 dc3d 48d2 c3bd
