model/model_sqrtVC.pkl (torch, 748258 bytes, 13 tensors)

weight f4 [512, 220]
00000000: f0d8 85bd 3e60 f1bd 38a1 84be 28b3 7cbe
00000010: 5a69 c4be 68dd 39bf 79ef acbe 0bc8 66be
00000020: dc4d 7bbe 7fb0 9ebe 2bcb 28be b4cb 33bd
00000030: b6af cabb 3315 0c3d 1b21 ce3d 006b 753d
00000040: 318a 99bc a2aa bd3b 9cd4 1b3e de28 c63c
00000050: 8638 5cbd 047d 85bd 6417 433e 5ed0 533e
00000060: 6fc1 9b3e c351 9d3e 9b8a 593e e675 d43d
00000070: e1c3 873e 4e7d 5d3e e098 013e 6c81 a03d
00000080: 419b 3a3d 83c2 133e c247 533e 08e0 4d3e
00000090: b4ba 693e b32e 8b3e a4ef 573e 1a4f 723e
000000a0: d15a 8b3e b0e7 f53d 9281 ea3d 76b8 bd3d
000000b0: e53a 823e 93c5 403e 6385 9a3e dede 953e
000000c0: b7ae 503e 2ece 143e 4002 803e 8e26 1a3e
000000d0: 4269 023e d711 103e 1f39 713e 0d50 4d3e
000000e0: bc2f a53e 7fdf 673e 9d3a 703e 38a5 713e
000000f0: fb01 123e 1939 653e 9601 913e 07f8 233e
00000100: 3785 573e e74a 1c3e de1c 5d3e 6d49 723e
00000110: 0097 6d3e d8aa 7f3e 6ed7 aa3e 3557 8d3e
00000120: 8fba 8c3e 0e34 8a3e f048 393e 7b96 3f3e
00000130: 1975 2f3e a1ae a93e 4414 9e3e 6cee c43e
00000140: 76a7 873e b9f4 bb3e 415a 923e 0211 7e3e
00000150: 3cdb a63e 50ed 7d3e b8e5 af3e 4d57 8a3e
00000160: 6d9b ad3e c06c cd3e 4de5 b23e 1ccc 983e
00000170: 6cfb c23e 75a1 aa3e 2647 b93e 54e5 cf3e
00000180: f6ec b03e b7a9 7f3e bc9e a73e c58e d03e
00000190: fb40 d53e c08b ce3e fd18 a23e e279 a93e
000001a0: 3b3f 853e 2853 ca3e 1610 d93e 68e3 be3e
000001b0: 0266 953e bcdf c73e c56b 563e 95a1 763d
000001c0: b1de b63b c281 8dbe 7092 743d ec10 49be
000001d0: b38e 72be 5d8a 85be 7cec debc 8b5f d13c
000001e0: 107a 6a3e 0b62 453d b588 c7bd 14e5 76be
000001f0: 74a1 3d3e adc7 25be 51c8 65be a80b aebd
00000200: 0979 493d 63b2 85bd d289 753d 9533 c5bc
00000210: b87d f93a e131 483d d5d8 323e faa0 ee3b
00000220: 1ca1 70bd c394 c03c 257f a63d 5713 b43d
00000230: 654e 60bb acf9 3cbd 644c b43d 4ff2 053d
00000240: 7242 7d3d 68a9 ecbb 354d e93d 2993 bb3d
00000250: 7880 f43c 7385 16bd 0595 373d 70e7 23bd
00000260: 8b24 e83d 6c4f 133d fad2 c03c ea1a 1abd
00000270: 0edc 723b 16f5 133d 4492 96bd 4c52 22bd
00000280: 534c 123d 2d0e 97bc 7027 d73d 878a 853d
00000290: f329 3d3d 215f 7d3d 3907 123d 205b 323d
000002a0: b8dc 47bd e412 883c cb4e 013e 7c06 1e3d
000002b0: 13a0 dc3c 8169 0e3d 7be6 913d 60e3 71bc
000002c0: 6bff 8a3d f4dc 9f3b 9b89 a4bd 2920 2e3d
000002d0: 2208 be3b af19 25bd 5574 773d fea1 023e
000002e0: 7b6c 133d d467 47bd 8986 c6bc f022 7bbd
000002f0: 2216 63bd cc1a 423d c105 64bd b44b 6ebd
00000300: 6d94 43bc 688d 9a3d 9001 283c ded3 a93c
00000310: d0ad 8cbd b582 8cbd c0ec b7bd fb1a 4bbc
00000320: 05ee 0a3d e864 29bd 9618 9abc 1a97 a0bc
00000330: a892 983d 3d20 0ebc a5c5 d9bd 4862 02bd
00000340: f928 c93d 8833 f0bc c902 5a40 a767 3140
00000350: 2a6b 0b40 fae6 d53f c78e 8e3f 01b0 8c3f
00000360: 59a8 843f b379 693f 5eff 693f 3109 4a3f
00000370: 656c 40bd 7ecb c3bd 4990 bebd 3720 01bd
00000380: aa41 b93a 83d8 1c3e 64a1 f0bd d635 0ebe
00000390: c1bf c0bb edd5 0abe 5d1a 39bd d993 0fbd
000003a0: 5fa4 39bd a9e8 fabd d97f eebd 9ad4 4bbd
000003b0: 9d14 c9bb 48cd dfbc 398f bdbd 13d4 c1bd
000003c0: 7846 f2bd fb82 0bbe b883 4ebc 369f f0bd
000003d0: 8936 15be 95fb 08be 7dc5 c6bd 29a1 01bd
000003e0: 8a6d 15be b332 29be 6255 d7bd 441c d4bd
000003f0: cf79 24be 60c1 a2bd 4757 f7bd 436d 15be
-0.06535518 -0.11785935 -0.2590425 -0.24677718 -0.38361627 -0.72603464 -0.33776453 -0.22537248
-0.2454142 -0.3099403 -0.16483752 -0.04389544 -0.006185497 0.034199905 0.10064908 0.059916496
-0.018742653 0.0057881633 0.15217823 0.024189409 -0.053764842 -0.065179855 0.19051892 0.20684955
0.30421016 0.30726442 0.2124428 0.1037405 0.2651663 0.21629831 0.12655973 0.07837185
0.045558218 0.14429669 0.20632842 0.20104992 0.22825128 0.27184066 0.2108751 0.23662987
0.27217725 0.120070815 0.11450495 0.09263699 0.25435558 0.18825369 0.3017989 0.29271597
0.20379148 0.14531776 0.25001717 0.1505377 0.12735465 0.14069305 0.23556946 0.20050068
0.3226298 0.2264385 0.23459859 0.23598182 0.14258568 0.22385062 0.28321522 0.16012584
0.21046911 0.15262948 0.21593043 0.23660822 0.23202133 0.24967515 0.33367485 0.27605596
0.27486083 0.2699284 0.1809423 0.18709747 0.17134513 0.33141044 0.30874836 0.3846315
0.2649495 0.36710146 0.28584483 0.24811175 0.32589138 0.24797559 0.3435495 0.2701973
0.33907643 0.40122032 0.34940568 0.29843223 0.38082445 0.33326307 0.36187094 0.4060465
0.34555787 0.24967085 0.32738292 0.40733925 0.4165114 0.40340996 0.3165969 0.33100802
0.26024804 0.39516568 0.42395085 0.37282872 0.29179388 0.39037883 0.20939548 0.06021269
0.005580746 -0.2763806 0.059709966 -0.19635361 -0.23687248 -0.26082125 -0.027212374 0.025558254
0.22898126 0.048189204 -0.09742872 -0.24110824 0.1851862 -0.16189452 -0.22439696 -0.08498317
0.049187694 -0.06528165 0.05994589 -0.024072448 0.001903466 0.048875693 0.17465527 0.0072823735
-0.058747396 0.023508435 0.0812972 0.08792751 -0.0034226414 -0.046136543 0.08803633 0.032701787
0.061830945 -0.0072223432 0.11391679 0.09158928 0.029846415 -0.03674836 0.04481985 -0.040015638
0.11335095 0.035964414 0.023538101 -0.037623324 0.0037057432 0.036122404 -0.07352117 -0.039629266
0.03571732 -0.018439377 0.10505569 0.065205626 0.046182584 0.0618583 0.03565142 0.043543935
-0.04879448 0.01661057 0.12627713 0.038580403 0.026931798 0.034768585 0.07124039 -0.014763683
0.06786998 0.0048786346 -0.08034059 0.04251114 0.0057993094 -0.040307697 0.060413677 0.12757108
0.035992127 -0.048683003 -0.024234073 -0.061312616 -0.05544103 0.047388837 -0.05566955 -0.058177665
-0.011937243 0.07546502 0.010254279 0.020730909 -0.068690896 -0.06860868 -0.08980703 -0.012396569
0.0339184 -0.041355997 -0.018810552 -0.0196033 0.074498475 -0.008674678 -0.10633401 -0.03183201
0.09822268 -0.029321447 3.40642 2.7719514 2.1784158 1.6711113 1.1137322 1.0991212
1.0363876 0.91201323 0.91405284 0.78920275 -0.046978373 -0.095602974 -0.09304864 -0.031524863
0.0014133949 0.15316968 -0.11749533 -0.13887724 -0.005882234 -0.13558169 -0.045191158 -0.035053108
-0.045322772 -0.12251408 -0.11645479 -0.0497633 -0.0061364905 -0.027319565 -0.09255833 -0.09464278
-0.11829847 -0.13624184 -0.012604646 -0.11749117 -0.14571585 -0.13377221 -0.09705637 -0.031647835
-0.14592567 -0.16523246 -0.10514332 -0.10356954 -0.16062091 -0.079470396 -0.12077194 -0.14592461

bias f4 [512]
00000000: a284 243c 1306 eebb 74c1 adbc 3454 293d
00000010: 70db fabc 0ab2 87bd cc80 afbc 23de 62bd
00000020: 0d6f 78bd 40bb 82bd 5167 e53c dd19 79bd
00000030: 6220 60bd 7695 e83a efa7 0dbd a9da 68bd
00000040: 3451 35bd 886e a43c 026c 85bd b166 5cbd
00000050: 0e3b 6d3d 6462 343d b3e2 183d b2f2 f1bc
00000060: dd99 75bd 3d0e cdbb c42e 11bd 6926 8f39
00000070: facb 303a 915a 463c f56e 53bd 7d6c d63c
00000080: ad9a 3cbc b68f bcbc b6fb 34bd 2e3f 023d
00000090: a375 583c ad11 54bd 0ace 5bbc 3bf1 95bc
000000a0: e75f bc3b 6b6c c63c d2e8 1d3d d759 ab3c
000000b0: bb52 80bd 5f36 893c 4a7f 2a3d 87e7 3ebc
000000c0: a2bd 84bd b396 84bc 8730 583d cdcd 35bc
000000d0: f41d 6f3d fb2d e53b a15e 523c b5bc 3a3d
000000e0: 6e6b 6abd 1d12 a63a 7a69 3abd 9315 fcbc
000000f0: 9493 b83b b4ec d9bc beff 633d 0cc4 febb
00000100: f8cd 733d 0a59 01bd 89ba d2bc 49f9 89bd
00000110: dd58 a63c 7e4a 523c afa3 6bbd 99d0 0fbc
00000120: 2b30 30bd e438 0ebb 3849 4a3d f7a8 1bbd
00000130: fad8 72bd 2d3d 5e3d cc63 4e3c 579b 3bbd
00000140: 359c d6bc 4eaa 3b3d 436e 8d3b 107c 503d
00000150: be93 813d 9491 583c 58ee cbb8 b46d 7cbb
00000160: a00e 843c cf31 2fbc f467 77bd d836 81bc
00000170: 0958 483d cb9b 2c3d a3ba 21bd eb25 703b
00000180: a8c1 483d 82f2 ffb9 2d41 2fbc 2f90 a83a
00000190: 1b65 fe3c 461b a5bc 1c82 1bbd 572c 383d
000001a0: 9492 b23c 3631 cf3b 4993 35bd 70b2 17bd
000001b0: 1f0e 4dbd a24a 02bd 9ce1 293d 6cb7 163c
000001c0: 8fec 683c 237a 29bd 002d 45bc 9022 383d
000001d0: 1726 86bd 2685 57bd ea16 4e3d 55cd 3b3d
000001e0: 76c8 0abd c377 56bd 03de 563c 05b5 02bd
000001f0: e89c 533d e1f0 5ebd 8283 6fbd bac9 413d
00000200: 1cd6 f2bc a849 393d 0751 5cbd a984 e6bc
00000210: 9459 3dbd f025 14bd 1751 12bb 01e9 ca3c
00000220: 912b 533c f747 fd3c b9d8 1ebd 3a84 203c
00000230: e696 65bd 9ed5 8d3b 1ca7 133b 61de 673c
00000240: 22fc e0bc f0d3 22bb debb 98bc 675b 563d
00000250: 86a3 72bc d821 98bc e5fe 27bc 5e99 f53c
00000260: a0f3 a4bc 3692 af3c 580f 893d 15e0 e0bc
00000270: 8ca1 6bbd b25c f2bb 7016 1f3d 9054 09bd
00000280: aad3 7d3d 6d5b 993b 948c 743d 83fa 98bb
00000290: 42ce 28bd 0590 823d 0f30 86bd abb5 7d3d
000002a0: 51f5 033d 384b edbc 59ee 0bbc af95 5c3d
000002b0: 159e f3bc ca4a 12bd 5483 4a3d 45a8 4c3d
000002c0: 25f5 61bd abf6 84bd ad9e fc3c 33d2 ffbc
000002d0: 69a1 223d 91cf 843d b997 6cbd eb81 fe3c
000002e0: cf1e 91bc f90e 70bd 92d4 25bc 8245 9f3c
000002f0: 7e64 2e3d d4ce 503d 5366 503d 721f 7dbb
00000300: 3463 59bd b9ee 7abd c7d5 5d3d 419b 0bbd
00000310: b043 143c 59fb 2cbd 1990 403d e70b eabb
00000320: 4e5a 7bbd 8204 0cbd e477 033d e21e 0d3c
00000330: a9a8 0b3d 221f 86bd 3b86 d3bc a33b 01ba
00000340: ef36 73bd eda2 ba3c 19da 1cbd a714 093d
00000350: 7a34 663d 8619 68bb 7da5 243d 25c0 d03c
00000360: af99 37bd 43e9 d1bc 70ce 893d 6231 f33c
00000370: 8da2 7ebd da45 793d 4482 693a 86d2 80bd
00000380: 020c ff3c e3b3 7e3d cf0b b63c 9231 483d
00000390: c68c 6ebd d18c 44bd 1770 1abd 625f 1d3b
000003a0: f4cf 47bd 1391 16bd f0d3 37bd e564 4cbd
000003b0: 8a39 eabc 4127 093d 781e 7c3d a74b 533d
000003c0: 23e4 6dbc 5ffe 833d 569f 0f3d fd4e 113b
000003d0: c434 9bbc c41f 003d 5338 223d 2d84 bc3b
000003e0: dfc0 873d c5ef a7bc 36bb 2a3d 3ccf 31bd
000003f0: 7458 cabb 5310 54bd 40e8 4ebd 3d21 8dbc
0.010041388 -0.0072639077 -0.02121041 0.041340068 -0.030622214 -0.06625755 -0.02142372 -0.055387627
-0.06065278 -0.06383371 0.028003367 -0.06081568 -0.054718383 0.0017744738 -0.034583982 -0.056849156
-0.044266894 0.020072237 -0.065147415 -0.05380887 0.057917647 0.044039145 0.037325572 -0.029534671
-0.05996119 -0.006257801 -0.03544499 0.00027303703 0.0006744262 0.012106554 -0.05161949 0.026174778
-0.011511487 -0.023017745 -0.044185363 0.031798534 0.0132116405 -0.05177467 -0.013415823 -0.018303504
0.005748737 0.02422162 0.038552113 0.020916862 -0.062657796 0.016749559 0.0416253 -0.01165188
-0.06481482 -0.01618514 0.052780654 -0.01109643 0.058378175 0.0069940067 0.012839944 0.04559012
-0.05723136 0.0012670193 -0.045510747 -0.030772006 0.005632827 -0.026602127 0.055663817 -0.0077748355
0.0595226 -0.031579055 -0.025723713 -0.067370005 0.020306045 0.012835143 -0.057529148 -0.008777761
-0.043014687 -0.002170139 0.049386233 -0.038002934 -0.059288956 0.05425756 0.012597036 -0.04580244
-0.026197532 0.045816712 0.0043161227 0.050899565 0.06327008 0.013218302 -9.724189e-05 -0.0038517537
0.016120255 -0.010693028 -0.06040187 -0.015773222 0.048912082 0.042140763 -0.03948463 0.0036643695
0.04901281 -0.00048818073 -0.010696691 0.0012860353 0.03105407 -0.020154607 -0.03796588 0.04496416
0.02179841 0.006323005 -0.044329915 -0.037035406 -0.050062295 -0.031809457 0.041474923 0.009199005
0.014216556 -0.041376244 -0.012034655 0.044954836 -0.06550234 -0.052617215 0.05031482 0.045850117
-0.03388258 -0.052360307 0.013114455 -0.031910915 0.05166331 -0.05442894 -0.058475025 0.047311522
-0.02964311 0.04523626 -0.05378821 -0.02813943 -0.046228006 -0.036168993 -0.0022326165 0.024769308
0.012888805 0.030918105 -0.0387809 0.00979715 -0.05605211 0.0043284437 0.0022530025 0.01415214
-0.027463976 -0.0024845563 -0.01864427 0.05233326 -0.014809495 -0.018570825 -0.010253643 0.029980358
-0.0201357 0.021432023 0.0669238 -0.0274506 -0.05752711 -0.007396304 0.038839757 -0.03352791
0.061969437 0.0046800883 0.05970438 -0.004668535 -0.041212328 0.06375126 -0.06552135 0.06194083
0.032216374 -0.028966531 -0.008540713 0.053853687 -0.029738465 -0.035715856 0.04944165 0.04996516
-0.05516543 -0.06492361 0.030837381 -0.03122816 0.039704714 0.06484903 -0.05776188 0.03106781
-0.017714886 -0.05860803 -0.0101214815 0.019442324 0.042576306 0.050978497 0.050878834 -0.003862348
-0.053073123 -0.06126282 0.054158952 -0.03408361 0.009049341 -0.04223189 0.047012422 -0.007142532
-0.061365418 -0.034183986 0.03209676 0.00861332 0.034096394 -0.06548907 -0.025820842 -0.0004929846
-0.05937856 0.022782767 -0.03829393 0.03346696 0.05620239 -0.0035415604 0.040196884 0.025482247
-0.0448243 -0.025623923 0.06728828 0.029686633 -0.06216674 0.06085763 0.0008907656 -0.06290154
0.031133655 0.062183272 0.022222428 0.0488754 -0.05823972 -0.047985855 -0.037704553 0.0024013151
-0.048782304 -0.036759447 -0.044879854 -0.049900908 -0.02859189 0.0334847 0.061552495 0.05158582
-0.014519724 0.06445002 0.035064064 0.0022172325 -0.018946059 0.031280294 0.039604496 0.0057530613
0.06628584 -0.020500073 0.041682445 -0.043410525 -0.006175095 -0.05177338 -0.05051446 -0.017227763

weight f4 [512]
00000000: 5247 7e3f 2b00 773f 5fae 743f 1c3f 8d3f
00000010: 9fa6 833f efca 853f 9f44 873f 63c8 5b3f
00000020: 3114 703f af9c 843f 7586 3f3f ee2f 813f
00000030: 4bdb 7c3f e170 823f f48d 613f fc06 813f
00000040: 70de 863f 8cdc 5b3f b5b3 843f 40fe 7c3f
00000050: 2c29 833f 9a4c 9b3f c13b 5c3f f4c9 6a3f
00000060: 3458 713f 260b 613f f3ab 613f ff1f 653f
00000070: a22c 883f 3838 603f 9505 813f db48 7f3f
00000080: f258 823f 2277 833f fd5b 443f d830 8a3f
00000090: 2d02 553f f62d 523f e4df 843f 737b 8c3f
000000a0: e4ee a63f 39b5 6f3f 5be0 843f 522a 7f3f
000000b0: 3e09 843f 40a1 653f 3038 5c3f b24c 663f
000000c0: 5d6c 7a3f 9ba0 783f fbe3 4e3f a769 8d3f
000000d0: 4851 803f f894 903f b66a 9d3f ca53 423f
000000e0: 1113 7d3f f507 443f 4d1b 843f 3ed2 653f
000000f0: 8a69 713f 6330 683f a335 323f 469c 8a3f
00000100: 4d00 833f 8cfa 863f 8566 5c3f 17b9 483f
00000110: e930 803f 6124 733f f3c6 803f 0b39 7e3f
00000120: b5d1 9d3f 56e6 903f 4070 6a3f 55a1 7a3f
00000130: fab8 683f f467 9e3f 0926 433f 8e1b 803f
00000140: 9cbd 843f 4d2e 673f 50c5 7e3f 5ed2 8a3f
00000150: 7858 373f 2eac 813f 35fc 813f 2531 773f
00000160: db43 843f 88d4 913f 4878 713f d8eb 6f3f
00000170: 1452 823f b62f 7c3f 7e4c 713f e811 833f
00000180: 9d72 973f 12b6 8d3f 3e82 823f e846 7a3f
00000190: bd66 7e3f 99f4 783f 844d 893f c452 9b3f
000001a0: 8d95 783f c89f 8a3f 6d6d 783f 44b8 703f
000001b0: 873d 793f 757e 853f 6c3f 8f3f c2e8 5e3f
000001c0: 03b6 8a3f 2e44 4d3f fcf1 823f 9255 463f
000001d0: 7aec 633f 1b5e 7b3f 810c 873f fb2a 813f
000001e0: cd23 883f 7ce1 6a3f 1a1f 843f cc16 873f
000001f0: d2b1 893f 459a 5d3f 38df 563f e8cd 823f
00000200: 6997 883f 55f3 6a3f 5206 833f 9092 613f
00000210: 012e 5f3f 26c9 523f 882e 843f 2316 783f
00000220: 4c39 803f 8f9e 6b3f 27bf 383f 9532 713f
00000230: d3e6 633f e139 833f 969b 6f3f 7cea 833f
00000240: b787 4c3f 435f 4f3f 173d 7c3f c84a 693f
00000250: 55c6 7d3f 2d37 693f 2c1e 6d3f 84fc 6e3f
00000260: 01c8 4e3f 3728 813f 4619 6f3f 1be5 763f
00000270: fb7e 753f e228 8c3f e7f8 7c3f 8140 873f
00000280: 87cd 7b3f 4a1f 803f 6f88 923f 7e57 533f
00000290: a92f 7c3f dda4 673f 9bfc 6d3f 1b30 683f
000002a0: 2e26 883f ca76 853f f316 833f 584b 823f
000002b0: babc 793f 29b9 763f 96b4 6b3f bfcb 5e3f
000002c0: c550 5f3f 64da 833f 8949 883f 1757 7e3f
000002d0: a671 723f 85cd 293f 45b7 803f 172f 563f
000002e0: 09a7 823f 4989 363f b38a 8f3f c547 653f
000002f0: 72af 873f 1554 7c3f cbcb 823f 7cce 8a3f
00000300: ad79 763f 804b 643f ce01 883f 22ea 783f
00000310: a975 553f bc3a 723f c06b 623f fb14 4e3f
00000320: 1f82 903f a591 8d3f 42e2 6e3f 834a 663f
00000330: 3ad5 a03f eb48 8d3f c3c7 823f ba5c 2c3f
00000340: e6fe 423f 636f 903f 9b5b 473f d24f 7c3f
00000350: 7266 613f 1c75 8f3f f0a6 723f 2cc5 233f
00000360: cf1a 733f b9b3 4e3f 7d05 863f 91eb 8a3f
00000370: ed34 723f 8ce8 713f 18a2 6a3f 0cbb 8a3f
00000380: 461e 763f ab61 7e3f 5a2d 6d3f 6e87 643f
00000390: 323a 403f 3512 993f 04a9 423f f8f8 633f
000003a0: 1b2c 583f d4c3 7e3f 0318 673f 2dff 8d3f
000003b0: 21a7 8e3f cada 743f d2af 853f f28b 833f
000003c0: 0ecd 683f 8ebc 4f3f 8563 813f 8c26 6f3f
000003d0: b7e6 7c3f 7039 863f c172 8e3f 4e1d 6b3f
000003e0: eb61 553f 3bfa 813f ff35 603f b4b3 8d3f
000003f0: 82e3 8a3f 0fca 6d3f bbc1 813f f1d1 5f3f
0.99327576 0.9648463 0.9557857 1.1034884 1.0285224 1.0452555 1.0567816 0.8585264
0.9378081 1.0360316 0.7481454 1.0092752 0.98772115 1.0190698 0.8810723 1.0080256
1.0536633 0.858834 1.0367342 0.98825455 1.024694 1.2132752 0.8602868 0.91714406
0.9427521 0.87907636 0.88153 0.8950195 1.0638621 0.87585783 1.0079829 0.99720544
1.0183394 1.0270731 0.7670286 1.0796156 0.83206445 0.8210138 1.0380826 1.0975174
1.3041654 0.936359 1.0380968 0.9967395 1.031532 0.8969917 0.86023235 0.8996078
0.978216 0.97120064 0.8081662 1.1047868 1.0024805 1.1295462 1.229819 0.759091
0.9885722 0.7657464 1.0320832 0.8977393 0.94301665 0.9069883 0.69613093 1.0828941
1.0234467 1.0545211 0.8609393 0.78407425 1.0014926 0.94977385 1.0060714 0.9930579
1.2329623 1.1320293 0.9157753 0.97902423 0.9090725 1.2375474 0.7622991 1.0008409
1.0370364 0.90305024 0.99519825 1.0845449 0.7161937 1.013067 1.0155092 0.96559364
1.0333208 1.1392984 0.9432416 0.93719244 1.0181298 0.985103 0.9425734 1.023984
1.1831852 1.1071188 1.0195997 0.97764444 0.99375516 0.97248226 1.0726781 1.2134633
0.97103196 1.0830011 0.9704197 0.9403117 0.9735951 1.0429217 1.119123 0.8707391
1.0836796 0.8018216 1.0230098 0.7747432 0.8903271 0.9819047 1.0550691 1.0091242
1.0635926 0.9175031 1.0321991 1.0553832 1.0757391 0.8656352 0.83934355 1.0219088
1.0671207 0.91777545 1.0236304 0.8811426 0.8717957 0.8233818 1.03267 0.9690878
1.0017486 0.92038816 0.72166675 0.9421781 0.89024085 1.0252038 0.9359678 1.0305934
0.79894584 0.8100473 0.98530716 0.9112973 0.99130756 0.91099817 0.92624164 0.9335406
0.8077393 1.0090398 0.9339794 0.9644334 0.9589688 1.0949976 0.98817295 1.056656
0.98360485 1.0009549 1.1447886 0.8255538 0.98510224 0.90485936 0.9296357 0.90698403
1.0636652 1.0426877 1.0241379 1.0179243 0.975536 0.9637628 0.9207243 0.8702964
0.8723262 1.0301023 1.0647441 0.9935164 0.94704664 0.6632922 1.005593 0.83665603
1.0207225 0.7130323 1.1214203 0.89562637 1.0600417 0.985658 1.0218443 1.0844264
0.9627941 0.89177704 1.0625551 0.9723226 0.8338266 0.9462087 0.88445663 0.80500764
1.128971 1.1060072 0.9331399 0.89957446 1.2565072 1.1037878 1.0217212 0.6732899
0.76170194 1.1283993 0.77874154 0.98559296 0.88046944 1.1207614 0.94785976 0.63972735
0.9496278 0.80742985 1.0470425 1.0853139 0.9461201 0.94495463 0.91653585 1.0838332
0.96139944 0.9936778 0.92647326 0.8926915 0.750888 1.1958681 0.7603915 0.8905177
0.844423 0.9951756 0.90271014 1.1093498 1.1144754 0.95646346 1.0444281 1.0277083
0.9093789 0.81147087 1.0108496 0.9341819 0.9878954 1.0486279 1.112877 0.9184159
0.83352536 1.0154489 0.8758239 1.1070466 1.085068 0.9288644 1.0137247 0.8742972

bias f4 [512]
00000000: 8e36 5bbe fee8 f9bd 2e9d dd3d d0d2 743e
00000010: 7839 8fbe 0cfe e93d 0d23 11be fe28 ac3d
00000020: a1ab 243e 78c1 22bd 15a8 72bd 7002 a5bd
00000030: 0ce6 ffbd 091d 51bd a157 a0be 8c18 543b
00000040: 9a1b f6bd 1f8e 13bd 39c9 ddbd 3a38 ec3d
00000050: 7fb2 51be f8a4 e7be d310 983e c0f0 fc3c
00000060: b704 9dbd 85ff ddbc ef25 473e c602 f83d
00000070: 7cf2 79bd b09f 043e ad06 27be a2c7 053f
00000080: 5beb 30be 7199 f13d fe4f 753d bc15 ba3d
00000090: eda1 8f3e 76bd 703d a438 45bd 5046 27be
000000a0: 664a 553e 4cb7 babd 80d1 cebd dab8 d3be
000000b0: 2db1 093e af43 ac3b cce5 0f3e 9600 5d3e
000000c0: 57e1 28be 7f77 253d c410 213e 8eda 0fbd
000000d0: 0037 6a3d 39de b1be 6026 bcbe 50b0 07be
000000e0: 168f 28be f234 a83e afe3 75bd 5579 763c
000000f0: 2989 283e 2402 1c3c 1b08 4a3f 5274 a9bd
00000100: 6b3c 9b3d ba90 f6bc c962 043d 27fd 583d
00000110: f15c c4bd 452b 82be 3cb1 00be b30b 22be
00000120: 7f2a b5be 0049 553c 6e95 fd3c e3de 11be
00000130: c916 70bd 9aaf 6fbe 4e1a 953e 5189 d83c
00000140: 66d8 283a 93cf a83c 8531 c2bd 86f1 1abc
00000150: 2517 3d3e 4974 70be 5ae8 cbbd 4b2b d83e
00000160: 3bb3 a2bb 454c 8ebe e6e4 3dbd 12c8 cdbd
00000170: 3fa1 0cbe 7b5d 68ba a738 873e dd2a 2d3c
00000180: e4d5 3ebe 9130 043c 6d7b acbd 5de9 06be
00000190: 4d7b 62bd 208b 0e3e bc83 cc3b f4a0 d7bd
000001a0: 83e0 86bd 85b8 a4be cbfa ec3e dcc5 50be
000001b0: 3131 ecbd 57b0 c13d dc5f 0fbf 328b 5e3d
000001c0: 3771 e0be 97c5 343e afcd 843d d4e6 4d3e
000001d0: 3cc2 f43d 9c7d 02bd efbe 093d 6e8f a5be
000001e0: 4f32 38be f5c0 12be a471 9a3d e645 c7bd
000001f0: 3294 54be 850c 013e 0a13 43bd e9d4 8a3d
00000200: f662 a5bd 1222 e83d 7d7c 15bd c7cb 3f3e
00000210: 71aa 19be aace bcbd d300 d43d 992c 3f3e
00000220: 2cef 5bbe c9c7 0c3b 8f79 583f c749 3a3c
00000230: 1a50 c03d 47fa eabd 364b 77be c2db aebd
00000240: 55ab 3f3e 9cd0 8c3d 58ba 8dbd d389 e83e
00000250: 9646 49be 477a 323e d509 c93c 6985 c53c
00000260: bf70 12be 4c51 ef3d 5c3d fabd 0148 e2bd
00000270: a727 443d a4a7 a53d 4f50 fc3c 3b1d d7bd
00000280: 59c9 f0bc fa87 49bd 5b48 c9be b4be 0e3e
00000290: dab3 b4bd 2521 de3d 3d4d c13c 703c 103e
000002a0: 425f f3be 6313 573c 787c 20be aaab dfbd
000002b0: cc92 3bbe 9274 bcbd ab98 20be c05f 4b3e
000002c0: c531 2e3d 14f1 69bd f823 e4be 19c7 3dbd
000002d0: e4db 353d 1498 46bb f9f4 b9bd 617a ce3d
000002e0: e61c e5bd ccaf f23d 4b31 753d ae48 4c3e
000002f0: 72fc cebd cc67 25be 2bb6 63bd f186 a2bd
00000300: 3d2c c4bd daab 0dbe 1b0f 8abd 3b64 a93d
00000310: 8992 4c3e bdf5 1bbe 862f 6d3d 1d0f fd3d
00000320: 03a7 99be bf17 febe 5de5 4fbb d0fd dabd
00000330: 4c8d c0bd 520f 433e 56a3 d5bd 193c fc3c
00000340: 8f7c fcbd 8826 f8be a992 1a3e 1424 01be
00000350: ae50 c6bd 8676 04bc 8c18 b43d 0c44 5cbd
00000360: 78b7 20be bed1 1d3e 3c88 6dbd e14d 4ebc
00000370: f1ee 0a3e c880 e3bd f852 8f3c b328 edbd
00000380: aef1 26bd a35e 10be 6a2c 12be d32d 213e
00000390: 21dd 803e b3ab 9ebe 9b06 893e 913b 533d
000003a0: d2f9 72bd da41 b8bd ef12 02be 3684 05bf
000003b0: 3d73 eabe a0d6 38be 36f9 f2bd b3f5 75be
000003c0: 4870 553d a2c9 7abd 972a 53be fc68 c2bd
000003d0: 6c24 1ebe cb7c 0abe 08ad 533e 0987 813e
000003e0: cdde bd3e afe4 55bc 8dde c0bd 5444 2bbe
000003f0: f051 943d f429 68bd b11a 51bd a3ae 2b3e
-0.2140753 -0.12202643 0.10820995 0.23908544 -0.27973533 0.11425409 -0.14173527 0.08406256
0.16081096 -0.039735287 -0.059242327 -0.080571055 -0.1249505 -0.05105308 -0.31316856 0.0032363264
-0.12016983 -0.03602421 -0.10829396 0.11534162 -0.20478247 -0.4524305 0.29700336 0.030876517
-0.07666915 -0.02709938 0.19448064 0.12109904 -0.061022267 0.12951541 -0.1631114 0.5225774
-0.17277281 0.11796845 0.05989074 0.09086177 0.28053227 0.058774434 -0.04814972 -0.16335416
0.20829162 -0.09116992 -0.10098553 -0.41351968 0.13446493 0.005257092 0.14052504 0.21582255
-0.1649221 0.040397163 0.15729052 -0.03512054 0.05718136 -0.34739855 -0.36748028 -0.13250852
-0.16460833 0.32852894 -0.06003159 0.015043576 0.16458572 0.009521995 0.7891862 -0.082741395
0.07579883 -0.030098308 0.03232077 0.0529758 -0.0958804 -0.25423637 -0.1256761 -0.15824775
-0.35383984 0.013017893 0.030955043 -0.14245181 -0.05861548 -0.2340683 0.2912163 0.026432665
0.0006440937 0.020606792 -0.09482101 -0.009456998 0.1846586 -0.2348186 -0.09956427 0.4222053
-0.0049652136 -0.27792564 -0.046360873 -0.10047926 -0.13733386 -0.00088640273 0.2641041 0.010569301
-0.1863628 0.00806822 -0.08421979 -0.13174959 -0.05529337 0.1392026 0.00624129 -0.10528746
-0.06585791 -0.32172027 0.4628509 -0.20387977 -0.1153282 0.09457462 -0.56005645 0.054331966
-0.43836376 0.176535 0.064845435 0.20107585 0.1195111 -0.03185807 0.033629354 -0.3233599
-0.17987941 -0.1433142 0.075412065 -0.09730129 -0.20759657 0.12602432 -0.04762558 0.06778891
-0.08075516 0.113346234 -0.036495674 0.18730079 -0.15006424 -0.092191055 0.1035172 0.18669356
-0.21477956 0.0021481386 0.84560484 0.011370129 0.09390278 -0.11473518 -0.24149784 -0.08538009
0.18717702 0.068757266 -0.06920308 0.45417652 -0.19655833 0.17429458 0.024540821 0.024111466
-0.14300822 0.11685428 -0.122187346 -0.1104889 0.047889378 0.080886155 0.030800013 -0.10503622
-0.029392885 -0.049201943 -0.39313015 0.13939935 -0.088233665 0.108461656 0.0235964 0.14085555
-0.47533613 0.013127181 -0.15672481 -0.10921414 -0.18317717 -0.092019215 -0.15683238 0.19860744
0.042527933 -0.057114676 -0.44558692 -0.046332452 0.044399157 -0.0030303048 -0.09079928 0.10081936
-0.111871526 0.11849937 0.059861463 0.199496 -0.10106744 -0.16152877 -0.05559365 -0.07935894
-0.0957875 -0.13835087 -0.067411624 0.082710706 0.19977774 -0.1523046 0.05790665 0.12356398
-0.30010232 -0.49627492 -0.0031722405 -0.10692942 -0.0940195 0.19048813 -0.104315445 0.030790376
-0.12328445 -0.48466897 0.15095009 -0.12611419 -0.09683357 -0.008084899 0.087937444 -0.053775832
-0.15694988 0.15412042 -0.05799125 -0.01259181 0.13567711 -0.111085474 0.017495617 -0.115800284
-0.040757827 -0.14098601 -0.14274755 0.15740137 0.25168708 -0.3099037 0.26762852 0.05157048
-0.05932028 -0.08996935 -0.12702535 -0.5215486 -0.45791045 -0.18050623 -0.118639395 -0.24019508
0.052109033 -0.06122745 -0.20621715 -0.094926804 -0.15443581 -0.13524167 0.20671475 0.25298336
0.37084046 -0.013055011 -0.09417448 -0.16725284 0.07242191 -0.056680635 -0.051050846 0.16765837

running_mean f4 [512]
00000000: a730 26c3 29fc 57c3 0e09 02c1 a934 8443
00000010: c06f a543 0e70 5d43 09b8 8442 5ada 7242
00000020: e7bf 5243 66c2 18c2 b9ec afc2 b2b1 dac1
00000030: e822 a7c3 27e7 d8c2 5b8d 87c2 03c3 a941
00000040: dc8c b3c0 f677 6cc2 4bd5 e7c1 06af d542
00000050: db48 7242 ab6f b7c2 9f1c 0142 af34 1ac3
00000060: 5bbf 8442 4b89 0642 419a 8043 32cf 2cc3
00000070: 2cef 23c2 8601 7ec3 b929 9cc3 2682 1344
00000080: c0ca a5c2 a205 4443 2a31 c142 2e2f 8b42
00000090: ac6e 3443 91ef 4442 565d 3b43 2ae7 1ac1
000000a0: 7ec7 3f42 52f7 2843 4e54 9d40 0565 5b43
000000b0: 4c51 7843 3dc5 4dc3 a19b 44c2 fcdd 9842
000000c0: 2e69 edc3 4166 0543 88af 9d42 f338 d341
000000d0: 28a8 04c2 8eed bfc2 1ce0 a9c3 8287 0f43
000000e0: b916 05c4 2f82 4043 d9ae 24c2 9674 1b43
000000f0: aa31 b343 4b1b 65c2 93b6 4c44 1aff 3042
00000100: f828 8a41 840d 4ac2 c7ac ec42 20b6 35c2
00000110: a431 39c2 1b15 5ec3 b0e3 3cc2 1c83 acc2
00000120: 9a5b bd42 37f8 a741 52b1 2f43 7ac5 12c3
00000130: 94c9 d342 6c4b d742 f19b 8243 84d3 94c2
00000140: 54be 2143 bbc6 ff41 6e5c 9d43 a2e6 3642
00000150: 932e 3043 6e21 c7c0 a1b9 f7c2 b2da c643
00000160: 5a45 9542 da56 1942 5db0 63c2 7f88 5ac2
00000170: e5cf 1543 ed9d 7ac2 ea06 0343 fd93 11c2
00000180: a0b1 01c2 a773 fe42 52cb a843 d9f9 14c4
00000190: 9a8b 4bc2 2cc4 81c3 16cf 9d42 7db3 9842
000001a0: 6e23 3d42 4f4c a941 1dad d643 240c b3c2
000001b0: 5646 23c3 6ef9 1f42 17f6 3f43 7787 9543
000001c0: e0fe a543 960c 0343 9ef4 3342 c8b2 0443
000001d0: 9896 1643 4044 ffc1 a62b 8b42 8b95 2243
000001e0: 5094 90c0 d214 01c3 1a1e 8b43 f7df 06c4
000001f0: 967e d0c2 ffa5 0c43 0358 07c3 6648 5d43
00000200: 8faa a241 9db4 07c3 befb ec40 3c65 2643
00000210: 5941 8bc1 18dc 58c3 aed9 8042 43f4 9f43
00000220: a582 1bc3 380d 5ac2 7ef0 8544 2e7d 9d41
00000230: f5a1 14c3 e31f 25c4 4b8f 1ac3 71be 29c4
00000240: 08a2 8241 136c 1242 d888 84c1 978c e443
00000250: 92f1 c5c3 13a7 c041 9ec8 9cc3 9a8a b342
00000260: 09be cc42 9336 b7c2 fea8 8fc3 3b0b 9cc3
00000270: 64d6 6ec3 2ca5 cc42 b160 8e42 1778 0ac4
00000280: 445c 1a43 0ca5 c241 d8c0 1ec4 417e 3a42
00000290: 2102 c0c2 28ff d042 90bf abc2 2a61 6c43
000002a0: 3636 2644 27b6 8f43 8267 fec2 baba 0042
000002b0: 16ec 11c3 cbd2 97c2 a210 bf42 a6cd 8642
000002c0: b981 a243 1080 9241 be3d 83c3 a6f7 eac1
000002d0: 121a b2c2 5c8b d0c1 7e74 73c2 b79a 6ec2
000002e0: 4db3 81c2 b725 d5c1 f07d 6c43 7bca 8b42
000002f0: b843 ebc2 6cb8 8cc3 56a8 8242 f922 01c4
00000300: 1bb9 3ec3 2128 66c2 006a 0441 3e7c 2242
00000310: 08de 9842 941a c541 3ee3 2841 33fb 0043
00000320: 3fd5 92c3 ef6e c443 a2af 4942 5958 b6c2
00000330: e215 d142 4284 cc43 4e18 38c2 2c5f f742
00000340: df68 3b43 445d e343 577e 3143 32d5 9dc2
00000350: 2d5a 6bc1 d830 6443 d68f 8343 2515 5d42
00000360: 879a 23c3 7fbc 7942 a2b0 7ec0 22d7 66c2
00000370: 7496 cac2 0713 85c2 4bf2 2e43 5684 2043
00000380: 053d 1ac2 5bc3 08c3 813e ea42 068b 2f42
00000390: fec9 1e43 c8dc 58c3 1edf 5743 dbc9 47c1
000003a0: f89e 3e43 47d6 abc2 3606 23c3 6c14 1744
000003b0: b4f1 c4c3 e7e5 f1c2 c1c5 06c4 acd5 2cc3
000003c0: 6ec4 0743 7ea1 9f42 33b2 86c2 4057 483e
000003d0: d04a 4bc3 6e4c cb41 137c 0743 3611 5a42
000003e0: a838 9f43 441d 6ac2 3384 0dc3 73bf 1a43
000003f0: 6454 3443 8585 cec2 b593 da42 7b8c 9142
-166.19005 -215.985 -8.127211 264.4114 330.87305 221.43771 66.35944 60.713234
210.74962 -38.189842 -87.96235 -27.336765 -334.2727 -108.45147 -67.776085 21.22022
-5.6109447 -59.11715 -28.979147 106.84184 60.571148 -91.7181 32.27795 -154.2058
66.37374 33.634075 257.2051 -172.80936 -40.983566 -254.00595 -312.32596 590.03357
-82.895996 196.022 96.59602 69.59215 180.43231 49.23395 187.3646 -9.681437
47.944817 168.9661 4.916541 219.3946 248.31757 -205.77046 -49.15198 76.43356
-474.82172 133.39943 78.842834 26.402807 -33.164215 -95.963974 -339.75085 143.52933
-532.35504 192.50853 -41.17075 155.45541 358.388 -57.276653 818.8527 44.249123
17.270004 -50.5132 118.337456 -45.427856 -46.298477 -222.08244 -47.22235 -86.25607
94.67891 20.996199 175.69266 -146.7714 105.89371 107.64731 261.2183 -74.41312
161.74347 31.972036 314.7221 45.725227 176.18193 -6.222831 -123.86256 397.70856
74.63545 38.334816 -56.92223 -54.633297 149.81209 -62.654224 131.02701 -36.39452
-32.423462 127.22588 337.58844 -595.9039 -50.88633 -259.5326 78.904465 76.35056
47.2846 21.16226 429.35245 -89.52371 -163.27475 39.993584 191.96129 299.05832
331.9912 131.04916 44.988884 132.69836 150.58826 -31.908325 69.58525 162.58415
-4.5181046 -129.08133 278.23517 -539.49945 -104.24724 140.64842 -135.3438 221.2828
20.33328 -135.70552 7.4057302 166.39545 -17.406908 -216.85974 64.425156 319.9083
-155.51033 -54.51291 1071.5154 19.686123 -148.63264 -660.4982 -154.55974 -678.97565
16.329117 36.60554 -16.566818 457.09836 -395.88727 24.08158 -313.56732 89.770706
102.37116 -91.60659 -287.32025 -312.08774 -238.83746 102.3226 71.18885 -553.8764
154.36041 24.33059 -635.0132 46.623295 -96.00416 104.49835 -85.874146 236.37955
664.84705 287.42307 -127.20216 32.18235 -145.92221 -75.911705 95.532486 67.40166
325.01346 18.31253 -262.48236 -29.370922 -89.05092 -26.068047 -60.86376 -59.65109
-64.8502 -26.643415 236.49194 69.89547 -117.63226 -281.4408 65.32878 -516.54645
-190.72307 -57.53919 8.275879 40.62133 76.433655 24.637978 10.555479 128.98125
-293.666 392.86667 50.421516 -91.172554 104.54274 409.03326 -46.023735 123.68588
187.40965 454.72864 177.49352 -78.9164 -14.709516 228.1908 263.12372 55.27065
-163.60362 62.43408 -3.9795308 -57.71009 -101.29385 -66.53716 174.94646 160.51694
-38.55959 -136.7631 117.12208 43.885765 158.78903 -216.86243 215.87155 -12.486781
190.62097 -85.91851 -163.02426 604.3191 -393.8883 -120.94903 -539.0899 -172.83466
135.7673 79.815414 -67.348045 0.19564533 -203.29224 25.41232 135.48466 54.516808
318.44263 -58.52858 -141.5164 154.74785 180.32965 -103.26078 109.28849 72.774376

running_var f4 [512]
00000000: 197d bf48 b994 ca48 886c 2648 0a46 1b48
00000010: c3f0 d648 0ef9 3548 7d42 bf47 5ac2 c749
00000020: ce41 2649 71d4 dd47 2c4c 7249 fa48 2449
00000030: 4ffa 0348 321a 6449 4792 af49 a2a9 3848
00000040: c166 c347 0694 e449 d630 ea47 9d17 9f48
00000050: 81ec 0749 49fc f248 ddad 0c4a f1c5 bc49
00000060: 259d 8848 7ae0 9149 8aab 354a b70a f348
00000070: 50b4 5d48 6883 d849 edf7 c249 f3d6 4c48
00000080: d599 9c48 7fc2 9c48 1592 2049 69ae a748
00000090: 0fc5 1849 ee47 8f49 ca0e ac48 3248 8148
000000a0: b988 8c47 b9b9 b949 d659 2749 7711 f648
000000b0: 274f eb47 951e 0349 6fcf 1d49 87a7 d648
000000c0: dfe5 8f48 277e 3349 97bb d548 76bc c748
000000d0: 4f12 6a48 b404 4f48 0ae0 0349 ba78 f748
000000e0: 9b3f 5448 cc24 9349 8cfe c248 72fb 0b4a
000000f0: a5f8 b449 b377 fc49 0d25 f248 142d e048
00000100: 9244 5549 e5a0 5748 1575 d149 0481 9149
00000110: 65a2 4c48 e7f0 f248 450e 1848 1f4d ab48
00000120: ffc4 ba48 05d5 7a48 8d5c 9849 2043 d348
00000130: cc8c 4849 1f9f 9947 ab9a 7c49 ce1e 1d4a
00000140: e7e1 4949 c146 1f49 dd9d 0149 6435 6e48
00000150: b980 bf49 9818 8349 bd6e 7a48 ca9c d047
00000160: 06e8 8748 814e fb48 3092 f148 6cd7 e548
00000170: 7438 9748 3b5f 2c49 6719 1d49 2253 1248
00000180: 7141 b048 866b 6048 fd26 3d48 df95 8648
00000190: 81f0 4549 a545 7e48 0356 bd48 aeef 9048
000001a0: 5e14 a248 1c29 9648 5fe6 e247 e5d2 fa48
000001b0: e23d d249 9f35 7449 ca83 bf48 d242 d049
000001c0: 42a4 8949 4a24 7b49 73f9 fa49 b4e0 7449
000001d0: 9d13 2449 1b26 6648 0962 0d49 3814 3249
000001e0: 2e44 6848 cdd2 0f49 b628 5149 e33b 6848
000001f0: 90a7 2c49 07f0 0f4a c28a 8749 7103 ce49
00000200: acca 8a48 c9f2 9d49 bc03 e448 d36f 5349
00000210: 02f1 1c49 2595 264a f0b3 0f4a c6e8 7149
00000220: fa64 db48 ba7a ca48 7304 6349 6d94 6748
00000230: ee2f bb49 d115 9548 c727 2149 5cee 9848
00000240: 34e2 5349 cd4e 4e48 7929 0a48 416c 9848
00000250: 08e4 6048 977e 1849 05e7 ae48 6fc2 3049
00000260: 77f6 6449 2f83 5e48 3d98 a848 80b7 fd49
00000270: e21f 8548 5e46 cc48 5f0c ee49 eb24 4c48
00000280: ab94 3649 051d 8a48 3587 bf48 7c37 3849
00000290: 1579 1249 68d3 b848 5dc0 a648 caf6 3e49
000002a0: 8146 1349 e5bd 0949 3c2a a848 b2e0 8048
000002b0: 6d83 1a49 74c5 4c48 b97e 9949 e7ca 7549
000002c0: 2892 074a e617 f048 770f 9948 525a ae49
000002d0: 7e43 b349 23ef 054a 48a7 2049 08ad 7c49
000002e0: 5e7d d747 fda2 184a c86e 9948 da75 4949
000002f0: f018 2f49 cb44 0f49 29ef 2c49 156e 7448
00000300: f5ed 2449 dfc4 cd49 a5b4 0c48 886e 2849
00000310: ed14 f448 d472 4648 bfad f247 7534 2d49
00000320: 6328 3449 1558 ed48 bc33 a748 bdb1 ba48
00000330: e7b3 3347 1a26 d248 491f 2449 f2f9 c449
00000340: d4aa b349 271b 5849 d03f 244a a4c9 2648
00000350: 1ca2 ce48 164b d348 d490 cd49 d2bd 3a49
00000360: 41f9 bb48 0097 0849 35d0 1049 666a 6849
00000370: 3d85 2e49 5129 c148 d73e a249 0e49 bd48
00000380: a343 ca48 007d 2d48 53cb 9549 aa20 8549
00000390: 425b 8f49 c0fa 4f49 718b 6b4a 2495 b349
000003a0: 9da7 8648 3d58 7748 d644 e848 77c0 be48
000003b0: b30e 0749 0f88 3f48 8498 6448 937b e048
000003c0: 33a2 7949 10b8 a549 968f 4848 0847 3149
000003d0: 300e fc48 4f86 e847 4c13 2649 10f2 9649
000003e0: 8f3e 4849 4fcf c647 12c1 0f49 a3c7 9948
000003f0: 4b21 e948 d85c 054a 873a 9a49 1011 a648
392168.78 414885.78 170418.12 159000.16 440198.1 186340.22 97924.98 1.6364272e+06
680988.9 113576.88 992450.75 672911.6 135145.23 934307.1 1.4382809e+06 189094.53
100045.51 1.8725128e+06 119905.67 325820.9 556744.06 497634.28 2.3048872e+06 1.5464301e+06
279785.16 1.1950232e+06 2.9764825e+06 497749.72 227025.25 1.773677e+06 1.5971816e+06 209755.8
320718.66 321043.97 657697.3 343411.28 625744.94 1.1737578e+06 352374.3 264769.56
71953.445 1.5214631e+06 685469.4 503947.72 120478.305 537065.3 646390.94 439612.22
294702.97 735202.44 437724.72 409059.7 239689.23 211986.81 540160.6 506821.8
217342.42 1.2054015e+06 399348.38 2.2934685e+06 1.4825166e+06 2.0682144e+06 495912.4 459112.62
873545.1 220803.58 1.7158746e+06 1.1919685e+06 209545.58 497543.22 155705.08 350824.97
382503.97 256852.08 1.2481456e+06 432665.0 821452.75 78654.24 1.0346667e+06 2.5742595e+06
826910.44 652396.06 530909.8 243925.56 1.5687911e+06 1.073939e+06 256442.95 106809.58
278336.2 514676.03 494737.5 470715.38 309699.62 706035.7 643478.44 149836.53
360971.53 229806.1 193691.95 275630.97 810760.06 260374.58 387760.1 296829.44
331938.94 307528.88 116172.74 513687.16 1.7223002e+06 1.00028194e+06 392222.3 1.7060742e+06
1.1275602e+06 1.0286766e+06 2.0559824e+06 1.00301925e+06 672057.8 235672.42 579104.56 729411.5
237840.72 589100.8 856715.4 237807.55 707193.0 2.3582738e+06 1.1103602e+06 1.6876621e+06
284245.38 1.2939131e+06 466973.88 866045.2 642832.1 2.7292892e+06 2.354428e+06 990860.4
449319.8 414677.8 929863.2 237137.7 1.5334378e+06 305326.53 660092.44 313202.88
867875.25 211259.2 141477.89 312162.03 230288.12 624617.44 358200.16 724006.94
937831.44 227852.73 345281.9 2.078448e+06 272639.06 418354.94 1.9500919e+06 209043.67
747850.7 282856.16 392249.66 754551.75 599953.3 378523.25 341506.9 782188.6
603240.06 564190.3 344401.88 263941.56 632886.8 209685.81 1.2574311e+06 1.00676644e+06
2.221194e+06 491711.2 313467.72 1.4282982e+06 1.4685278e+06 2.1943768e+06 658036.5 1.0349605e+06
110330.734 2.5007992e+06 314230.25 825181.6 717199.0 586828.7 708338.56 250296.33
675551.3 1.6856599e+06 144082.58 689896.5 499879.4 203211.31 124251.49 709447.3
737926.2 486080.66 342429.88 382349.9 46003.902 430384.8 672244.56 1.6136302e+06
1.4718345e+06 885170.44 2.69106e+06 170790.56 423184.88 432728.7 1.6839945e+06 764893.1
384970.03 559472.0 593155.3 951974.4 714835.8 395594.53 1.3291149e+06 387656.44
414237.1 177652.0 1.2271144e+06 1.0905812e+06 1.1743762e+06 851884.0 3.8591642e+06 1.4711405e+06
275772.9 253280.95 475686.7 390659.72 553195.2 196128.23 234082.06 459740.6
1.0224992e+06 1.35757e+06 205374.34 726128.5 516209.5 119052.62 680244.75 1.236546e+06
820200.94 101790.62 588817.1 314941.1 477450.34 2.185014e+06 1.2634409e+06 340104.5

weight f4 [128, 512]
00000000: 49eb eabc 63ef b4bc 88a2 6a3c ec86 c7bc
00000010: 7ce2 903c 5cce 2bbd 604a 22bc 04b0 ccbc
00000020: a7c0 2fbd 4d1e 0abd 727b f0bc 8fc0 cfbc
00000030: a3cd e03c d00f 3f3c 0025 9fbb 5789 4d3c
00000040: deed 1dbd 15d3 47bd 4a9a 363c 1c9a 363c
00000050: 3bb9 08bd 1bd2 58bb fa79 2ebd ea2b a6bc
00000060: 4c7b 09bc fa74 cd3c abe3 88bc bb00 f43c
00000070: f0fb 8dbb 0ae8 4ebc 919a 4fbd 6b41 233c
00000080: 3fcb 9ebc 4f2e 12bd 2b75 5d3b 218d 4cbc
00000090: 7ab5 04bd ad5b 40bd 4c07 ea3c 39a1 f13c
000000a0: 3296 56bd 6949 a6bc 5b78 093d 7846 8b3b
000000b0: ad78 723c 6a17 7f3c 1673 36bd 52ec fdbc
000000c0: 824c ccbc efc7 89bc 5bf4 33bd 3b91 6abc
000000d0: 9258 3e3c c6dc 833c f5bf 05bd ede0 84bc
000000e0: 8d3e 0a3d 1b34 1abd 4273 733c 6ff9 233c
000000f0: 8144 d4bc ae55 c3bb bcfa a73c f8b1 b6bc
00000100: b182 cbbc 402b 04bc 5867 a3bc e7c4 233c
00000110: 8fc9 d03c 3ce8 c1bc 5a6b c53c 1898 eb3c
00000120: d42b 41b9 e389 12bd 7deb 25bd 6cf5 8b3c
00000130: 44cb 8c3c 36b0 0c3d 3bc0 6fbc 8044 22bd
00000140: 6adb e23c e49c e43c 3c37 06bd 4959 fa3c
00000150: 47a4 223c d70b 923c 3af5 343c 200b 163d
00000160: cb8a c8bc 2508 12bc 7cbd b13c 6b3e ec3b
00000170: d69a e5bc 2767 e93b 5f41 96bc 8771 51bd
00000180: 3548 dd3c fdd1 b03c f727 8abb 7efe a93c
00000190: 7cb7 f93c 46ca 12bb 9a8d 6ebc ad4a 4ebd
000001a0: 9583 dabc 2ac9 05bd d794 0b3d ed38 0bbd
000001b0: 9afa 96bc b15f e93b f637 dbbb 7a9e e43c
000001c0: e867 a6bc cda4 48bc 5f2e 9838 2337 f73c
000001d0: 9397 21bd deff 633c e7b3 a7bc e1a3 e33c
000001e0: bedb 123b 8b69 2b3c a256 9d3c 3a36 d5bc
000001f0: c9aa 0f3d 136b 8cb9 9146 f53b 8d10 a5bc
00000200: e101 d83c 063d 05bd d538 19bc 30c2 d53c
00000210: 02fe c83b f3b5 14bd 1218 0e3d 6779 813c
00000220: 22b5 143d 584e 11bd d565 debc 2e89 e3bc
00000230: c536 b7bc 9fb8 afbc cdfa d0bb 0380 dd3b
00000240: 5552 8f3c 49fe 47bd e145 f4bc a626 ab3a
00000250: b326 943c f01e 243c a3c9 26bd b685 4abd
00000260: 871c 8f3c df0e a6bc 916d 0cbd 003a 4e3b
00000270: 73bd c439 856d 263c 403b e13b 1faa b8bc
00000280: b239 ebbc a286 1b3c 7930 c13c c412 2bbd
00000290: d844 0ebb 9e91 063d acac 07bd 324c bfbc
000002a0: 392a 11bd 0723 0abd 45e1 913c 61f5 27bd
000002b0: 24e3 073d 5a29 d7bc aea0 17bd 29f8 c0bc
000002c0: 0906 043d 401d 1abc 288e fe3b 5c79 dcbc
000002d0: 7971 edbc f798 e73c 3c2c 3abd c491 31bd
000002e0: 82dc 0dbd dc42 02bd 06eb dbbc 9fe1 903c
000002f0: edd1 67bc ca39 003d 39cc 21bd d777 933c
00000300: e4bf edbc c015 853c 7bc2 063d 37c6 ab3c
00000310: 3e7c 08bd be85 0abd a012 afbc 1d1c 06bc
00000320: 654a ee3b c023 c6bb 714c aa3b 0d37 cc3c
00000330: d736 07bd 61f6 45bc 88f0 683a ae5d 33bd
00000340: 2e4e 0e3d f9e1 603c 50cc 64bc d016 16bc
00000350: e2b5 2bbd 2950 2d3c 434b a43c 0cb4 fa3c
00000360: 42e2 29bd 9c3e bdba 5643 8bbc cac9 653c
00000370: e718 00bd 4ce6 99bb 3d4d 01bd 3a8e 883c
00000380: c064 e2bc 2f54 95bc 1a08 babc 5547 fb3c
00000390: 52ec a13c 1f1d c4bc e72c 483c 8d26 ebbc
000003a0: e1e1 d9bb ea43 71bb 5cd7 e4b9 efd8 d3bc
000003b0: 33cb d1bb 201c 043d 2267 bd3c 3967 7ebb
000003c0: 0c16 4bbd fc91 f13c 5051 0bbd f642 51bd
000003d0: 3aad 34bd f409 8d3c 361d 433c 5f6b 55bc
000003e0: 9b92 1fbd a7fb fd3b d92f debc 3866 5ebc
000003f0: 2768 133d d113 6e3c 64e7 4ebd 2857 eb3b
-0.028676646 -0.022086805 0.014320977 -0.024356328 0.017686121 -0.041944847 -0.009905428 -0.024986275
-0.042908337 -0.033720303 -0.029355738 -0.025360374 0.027441805 0.011661485 -0.0048567057 0.012544951
-0.038556926 -0.048785288 0.011145184 0.011145141 -0.033379775 -0.0033084217 -0.042596795 -0.020284612
-0.008391213 0.025080193 -0.016710123 0.029785505 -0.004333012 -0.012628565 -0.050684515 0.009964327
-0.019384025 -0.035688695 0.0033791761 -0.01248482 -0.032399632 -0.04696243 0.028567933 0.029495822
-0.05238933 -0.020298677 0.033562046 0.004250344 0.014799279 0.015569547 -0.04454335 -0.030996475
-0.024938826 -0.016818969 -0.043934207 -0.014316852 0.0116177965 0.016096484 -0.032653768 -0.016220534
0.03375106 -0.037647348 0.014859023 0.0100082 -0.025911571 -0.0059611415 0.020505302 -0.022301659
-0.024842592 -0.008066952 -0.01994674 0.009995676 0.025486736 -0.023670308 0.02409904 0.028759047
-0.00018422242 -0.03577603 -0.040507782 0.0170848 0.017186768 0.034347735 -0.014633234 -0.039616108
0.027692515 0.027906843 -0.03276752 0.030560153 0.009926862 0.017827911 0.011044795 0.036631703
-0.024480244 -0.008913075 0.021696799 0.0072095892 -0.028027933 0.0071228924 -0.018341718 -0.05113366
0.02701197 0.021584505 -0.00421619 0.020751234 0.030483 -0.0022398396 -0.014560128 -0.050364185
-0.026674071 -0.032662548 0.03407749 -0.033989836 -0.018430043 0.007122003 -0.0066900207 0.027907599
-0.020313218 -0.012246323 7.256562e-05 0.030177658 -0.039451193 0.013915984 -0.020471526 0.027788104
0.0022408809 0.010462175 0.019206349 -0.026026834 0.035074983 -0.00026782657 0.007485219 -0.020149494
0.026368083 -0.0325289 -0.009351929 0.026093572 0.0061337957 -0.036306333 0.034690924 0.01580496
0.036305554 -0.035475105 -0.027148167 -0.027775373 -0.022364983 -0.021450339 -0.006377554 0.006759645
0.017495314 -0.04882649 -0.029818477 0.0013057783 0.01808486 0.010017142 -0.04071964 -0.049443923
0.017469658 -0.020270763 -0.03428418 0.0031467676 0.00037525184 0.010157947 0.006873518 -0.022542058
-0.028714035 0.009492548 0.023582684 -0.041765943 -0.0021708515 0.032853715 -0.033123657 -0.023351762
-0.035440657 -0.03372481 0.017807612 -0.041005496 0.033175603 -0.026264835 -0.03701847 -0.023555832
0.032232318 -0.009406388 0.007768411 -0.026913337 -0.028984772 0.028271182 -0.04545234 -0.043351904
-0.03463412 -0.031802043 -0.026845466 0.01768571 -0.014149171 0.031305112 -0.039501403 0.01800148
-0.029022165 0.016245723 0.032900315 0.02096854 -0.03332161 -0.033818953 -0.021371186 -0.008185414
0.007272052 -0.006046742 0.005197101 0.024928594 -0.033011284 -0.012082667 0.00088859396 -0.04379051
0.034742527 0.013725751 -0.0139647275 -0.009160712 -0.041921504 0.010578194 0.020055419 0.030603431
-0.041475542 -0.0014438215 -0.016999882 0.014025161 -0.03127375 -0.004696643 -0.0315678 0.016669381
-0.027635932 -0.018228618 -0.022708941 0.030673662 0.019766007 -0.023939667 0.012217737 -0.028704906
-0.0066492413 -0.0036814162 -0.00043648004 -0.025860278 -0.006402397 0.032253385 0.023120467 -0.003881885
-0.049581572 0.029488556 -0.034013093 -0.05108925 -0.044110514 0.01721666 0.01190882 -0.013026088
-0.038958173 0.0077509466 -0.027122425 -0.013574176 0.035988 0.014531092 -0.05051364 0.0071820207

bias f4 [128]
00000000: 970c c93c 06e6 0b3c 3224 813d 73d3 453d
00000010: 3bf5 293d ceb3 bdbd ba66 da3d 31f5 2b3e
00000020: f07d 853d e3ad ec3c 2e6a bd3e 7804 1a3e
00000030: da69 57bd b994 90bd 4231 fc3d 2a7f 4c3d
00000040: 1040 073d 5b73 513e c1e2 9a3d a473 483e
00000050: d864 19bf c881 78bd cae4 fabe c8a0 17bd
00000060: 91f3 3f3e 0cd2 24be 2c50 323e 7455 ed3c
00000070: f00f 44bb 58c4 963c b928 18bc 8bab 143e
00000080: a4ca 923e 550d 07bd 6550 4cbc df0e 353e
00000090: 7050 87bc 248d 463c 2099 0bbb abcc 17bc
000000a0: 42da 293e dd1e fabc 75cc 91bb 72b1 9f3c
000000b0: 545e 143e e9ab 1fbd e9d4 e93d 5f40 fdbb
000000c0: 90e4 14bd d5c9 8cbd d37e adbd b23b 4f3d
000000d0: 71d1 ff3c b4a3 0cbd 57cb 803e 927d 4e3e
000000e0: 1db2 dd3b 5914 d0be a2b2 6abd 185f 25bd
000000f0: 59ca eb3c d1d0 7a3e 0095 1d3d 8fc3 6c3c
00000100: 2197 c43e 14bc 0c3e d95b 863c 9710 8c3b
00000110: 004a 0a3e 7b09 f3bc 33cc ba3e 2060 103d
00000120: d877 d33d 9535 e23c 1830 463e aa2f 4c3e
00000130: 34fa bbbb facb 0fbd e0d1 92bd e88f 05bb
00000140: c4ff 9f3d c752 5e3e 73bc 203e ea51 20bc
00000150: dedc 8f3d d73f c23e 306d 603e 0717 603d
00000160: f3fa 8fbe 5dde f0bc 9b8e d3bd 16b2 893e
00000170: 82c9 593e 511f be3c af9d 0dbd c6ae 0f3a
00000180: 9a59 10bd 8bb5 373e 8ad4 55be 0403 0cbe
00000190: 2b73 04bc 72e3 233e b951 cabd 161f c63c
000001a0: 8cb9 7c3c 144d 573e 319c 043e 237b 8b3e
000001b0: 672f 21bd fac0 573b 0ed5 ff3d f997 303e
000001c0: a167 693e fe4c fa3c cfe2 543e af48 1ebb
000001d0: 5507 f9bc 0742 d33c 0e47 233e fc44 1fbd
000001e0: 9cac 63bc 60a1 273e e49d b9bd 4500 a9bd
000001f0: ae0d d0bb e4c3 ab3c 9e5e faba 6c71 263e
0.024542136 0.008538729 0.06305732 0.048297357 0.041493636 -0.09262811 0.10664125 0.16792752
0.06518161 0.02889151 0.3699507 0.15040767 -0.052591182 -0.070596166 0.12314083 0.04992596
0.03302008 0.20454161 0.07562781 0.19575363 -0.599195 -0.060670644 -0.49002677 -0.037018567
0.18745257 -0.16095752 0.17413396 0.028971411 -0.0029916726 0.01840417 -0.009287053 0.14518563
0.28670228 -0.0329717 -0.012470339 0.17681454 -0.016517848 0.0121186115 -0.0021300986 -0.009265105
0.16587165 -0.030532295 -0.004449422 0.019493792 0.14489108 -0.038982306 0.114175625 -0.007728621
-0.036350787 -0.06874434 -0.084714554 0.05059404 0.0312278 -0.034335807 0.25155136 0.20165089
0.0067656175 -0.40640524 -0.057299264 -0.04037389 0.02878301 0.2449372 0.038472176 0.014450922
0.38396552 0.13743621 0.016401218 0.0042744386 0.13504791 -0.029667607 0.36483917 0.035247922
0.10325593 0.02761344 0.19354284 0.19940057 -0.0057366136 -0.035106637 -0.07168937 -0.0020379964
0.07812455 0.21711265 0.15696888 -0.009785155 0.07024549 0.3793933 0.21916652 0.05470946
-0.28121147 -0.029402906 -0.10329934 0.2689368 0.21268275 0.023208292 -0.034574207 0.00054810604
-0.0352417 0.17940347 -0.20881858 -0.13673025 -0.008084099 0.16004732 -0.098788686 0.024184745
0.015425097 0.21025497 0.12950207 0.27242383 -0.039351847 0.003292142 0.12491809 0.17245473
0.22793438 0.03055429 0.20789646 -0.002415221 -0.030399004 0.02578832 0.15945074 -0.038884148
-0.013896134 0.16370153 -0.09063318 -0.082520045 -0.006349287 0.020967431 -0.0019101684 0.16254205
