model/model_SCN.pkl (torch, 738239 bytes, 9 tensors)

weight f4 [512, 220]
0	0x3e5083b6	0.20362744
1	0x3e48ba55	0.1960233
2	0x3e77d7e8	0.24203455
3	0x3e1c86c6	0.15285787
4	0xbda6958c	-0.081339926
5	0x3e353f54	0.17699939
6	0x3e2312df	0.15925168
7	0x3c90bd6d	0.01766845
8	0x3dba0715	0.09083382
9	0x3ded3b3a	0.11583562
10	0x3d4afd37	0.04955789
11	0x3df13e04	0.11779407
12	0x3d6b396d	0.057427812
13	0x3defdba3	0.11711814
14	0x3cee9564	0.02912397
15	0xbe21d8c2	-0.15805343
16	0xbd8aacf1	-0.06771267
17	0xbdd2d338	-0.10294193
18	0xbdf22c6a	-0.118248776
19	0xbd9af7f2	-0.07566823
20	0xbd071925	-0.032982964
21	0xbd5a90f9	-0.053360913
22	0xbd15520a	-0.03645519
23	0xbd339c9f	-0.043850537
24	0xbd83a179	-0.06427283
25	0xbd6f50d6	-0.0584267
26	0xbda1a83e	-0.07893418
27	0xbd370253	-0.04467995
28	0xbdbf71ec	-0.09347901
29	0xbd7064b2	-0.05868978
30	0x3c8b7736	0.017024618
31	0x3d42bf70	0.04754585
32	0x3d5279d4	0.051385716
33	0x3ca78211	0.020447763
34	0xbdbe7dd2	-0.09301342
35	0xbb17eb67	-0.0023181082
36	0x3cf69bfa	0.030103672
37	0x3bfc745b	0.0077043003
38	0x3d3a60b6	0.045502387
39	0xbd6e9c80	-0.05825472
40	0xbc37f7cb	-0.011228512
41	0x3d8931c4	0.06698945
42	0x3c4772e8	0.012173392
43	0x3da44db1	0.08022631
44	0xbd3d96fd	-0.04628657
45	0xbcf0d41a	-0.029398013
46	0x3c7fa522	0.015603336
47	0x3dcedca9	0.10100681
48	0x3bc3a908	0.005971078
49	0x3db46a7e	0.08809374
50	0x3ba5a1d6	0.0050546927
51	0x3c04cde1	0.008105726
52	0xbc507bc9	-0.012724825
53	0x3d33a1a0	0.04385531
54	0x3aa4adc9	0.0012563999
55	0x3c8e0ecb	0.017341038
56	0xbd063dde	-0.032773845
57	0x3b023bcc	0.0019872067
58	0xbc326519	-0.010888361
59	0x3d910a57	0.0708205
60	0x3ccb18b7	0.024792058
61	0x3dc6b408	0.09702307
62	0x3d621c23	0.055202615
63	0x3d7b3a44	0.061334863
64	0x3d2c80d0	0.042115033
65	0xbc6911ca	-0.014225433
66	0x3c6c3dad	0.0144190015
67	0x3c56c578	0.013108604
68	0xbc6793da	-0.014134372
69	0xbca30485	-0.019899616
70	0xbd412978	-0.04715869
71	0xbd004648	-0.031317025
72	0x3d2cf6df	0.042227622
73	0x3d8d3c2e	0.06896244
74	0x3d4ab5b6	0.0494897
75	0x3ce5b228	0.028039053
76	0x3ae02062	0.0017099495
77	0xbda9c484	-0.082894355
78	0xbcc44e87	-0.023963226
79	0xbc41859d	-0.011811641
80	0xbd246978	-0.040139645
81	0xbc4149bc	-0.011797365
82	0xbd2db9bb	-0.042413455
83	0xbd9e405e	-0.07727121
84	0xbc141747	-0.009038753
85	0xbdb481d2	-0.08813824
86	0xbc1fbf4b	-0.009750198
87	0x3c074966	0.008257246
88	0xbdea7b64	-0.11449316
89	0xbe24d29f	-0.1609597
90	0xbe211ada	-0.157329
91	0xbe1bc241	-0.1521082
92	0xbdd81300	-0.10550499
93	0xbd9d6127	-0.07684546
94	0xbe2fc9c5	-0.17166813
95	0xbd3252c4	-0.043535963
96	0xbe2d92ea	-0.16950575
97	0xbdd39f9d	-0.10333178
98	0xbdbc835f	-0.092047445
99	0xbe7d1992	-0.24716786
100	0xbdec1ddd	-0.115291335
101	0xbe3ed1f6	-0.18634781
102	0xbe55e4ba	-0.20888034
103	0xbe55122a	-0.2080771
104	0xbe576838	-0.2103585
105	0xbe02ae65	-0.12761839
106	0xbe3be340	-0.18348408
107	0xbe0d7fe2	-0.13818315
108	0xbe6ca123	-0.23108344
109	0xbdd63581	-0.10459424
110	0xbe38923e	-0.18024537
111	0x3da0b403	0.078468345
112	0x3d6d9281	0.058001045
113	0x3da5e0de	0.08099531
114	0x3d447ba3	0.04796947
115	0x3dc7d7f4	0.09757987
116	0x3e83a0c5	0.25708595
117	0xbe21d364	-0.15803295
118	0xbd015d9f	-0.031583425
119	0x3dca8070	0.09887779
120	0x3d135bdc	0.035976276
121	0x3f0abca5	0.541941
122	0x3e892840	0.2678852
123	0x3cc2f265	0.023797223
124	0x3cd32b12	0.025777373
125	0xbdf04b9d	-0.11733172
126	0xbca53805	-0.020168314
127	0x3d77b0c7	0.060471322
128	0x3dd34c5b	0.10317298
129	0x3de37a00	0.11107254
130	0x3de5345e	0.11191629
131	0x3e94cb03	0.29061136
132	0x3e578425	0.21046503
133	0x3ddaaa5a	0.10677023
134	0xbc4523d4	-0.012032468
135	0x3cc39199	0.023873137
136	0x3db87f7f	0.09008693
137	0x3e034260	0.12818289
138	0x3c52d278	0.0128675625
139	0xbd353bf6	-0.044246636
140	0xbc971bf3	-0.018445944
141	0x3e09f669	0.13472904
142	0x3e476575	0.19472297
143	0x3ce1c0f6	0.027557831
144	0x3d2a8536	0.041630946
145	0xbde85697	-0.11344641
146	0x3cb2f8f2	0.021847222
147	0x3d86f9b3	0.06590595
148	0xbcafc55c	-0.021456413
149	0x3d869973	0.06572237
150	0x3c90762e	0.017634477
151	0x3d758353	0.059939694
152	0x3e46ba6d	0.19407053
153	0x3d37fc62	0.044918425
154	0xbd510eb0	-0.051039398
155	0xbd31c458	-0.04340014
156	0xbd4da90e	-0.05021005
157	0x3d6280f3	0.055298757
158	0x3af214f7	0.0018469383
159	0x3cb32a11	0.021870645
160	0xbc29d33f	-0.010365306
161	0x3d39e674	0.045385793
162	0x3e484354	0.19556934
163	0x3b5f6c32	0.003409159
164	0xbd886b8c	-0.06661138
165	0xbd189257	-0.037248936
166	0x3c1a1421	0.009404213
167	0xbd3be07a	-0.045868374
168	0xbd887b7b	-0.06664177
169	0xbca70469	-0.020387845
170	0xbd6d4b4f	-0.057933148
171	0x3daa010f	0.08300983
172	0x3e52803b	0.20556729
173	0x3d8a3191	0.06747735
174	0xbc67e9ad	-0.014154834
175	0xbb18374d	-0.0023226321
176	0x3d0c1c74	0.034206823
177	0x3c00fc99	0.007872724
178	0xbab96358	-0.0014143987
179	0x3ced0b1b	0.02893596
180	0xbd0c6934	-0.034280017
181	0x3dad59ff	0.08464431
182	0x3e2a8f88	0.16656315
183	0x3db6f2dd	0.08933041
184	0x3cd11369	0.02552195
185	0xbc6ffff4	-0.014648426
186	0x3d5024e9	0.05081645
187	0x3c0d3851	0.008619384
188	0xba1ca1a2	-0.0005975013
189	0xbd809522	-0.06278445
190	0x3d5f9c2e	0.054592304
191	0x3e2ca168	0.16858447
192	0x3e644f01	0.22295763
193	0x3d9d60c7	0.076844744
194	0xbd60f0d9	-0.05491719
195	0xbd9ec3d7	-0.07752197
196	0x3c9c05b8	0.019045696
197	0xbd123413	-0.035694193
198	0xbd88e3e6	-0.06684093
199	0x3c08577c	0.008321639
200	0x3cde4399	0.027131842
201	0x3debc94f	0.11513006
202	0x3e55194d	0.20810433
203	0x3da28bc9	0.07936818
204	0xbc50a270	-0.012734041
205	0xbd026876	-0.031837903
206	0xbd9e4dbe	-0.07729672
207	0x3c425c4c	0.011862826
208	0xbd1aec9d	-0.03782331
209	0xbc12478c	-0.008928191
210	0x3ccb1ec9	0.024794953
211	0x3d723ff3	0.059143018
212	0x3c0a5e04	0.008445267
213	0xbe784fd9	-0.2424921
214	0xbee6c49d	-0.4507188
215	0xbf2917a0	-0.66051674
216	0xbf3c7acb	-0.7362487
217	0xbf20c557	-0.62801117
218	0xbef401f0	-0.47657728
219	0xbea48051	-0.32129148
220	0x3e419f08	0.18908322
221	0x3df30f75	0.118681826
222	0x3e951306	0.29116076
223	0x3e537390	0.20649552
224	0xbe4423cf	-0.19154285
225	0x3e3a5994	0.18198234
226	0x3de026e8	0.10944921
227	0xbd92db1d	-0.07170699
228	0x3e14cb00	0.14530563
229	0x3e18803f	0.14892672
230	0x3dbc1d2d	0.09185252
231	0x3ccba2dd	0.024857933
232	0xbdaad2dd	-0.08341
233	0xbd7cea45	-0.061746854
234	0x3c9b3ad0	0.018948942
235	0xbe8c511c	-0.27405632
236	0xbdf1888f	-0.117936246
237	0xbd7a73be	-0.061145537
238	0xbda3943c	-0.07987258
239	0x3b678c17	0.0035331303
240	0xbd0d7bd0	-0.034541905
241	0xbcf12f27	-0.02944143
242	0xbdda3ea9	-0.10656483
243	0xbd91cf79	-0.071196504
244	0x3a25c64c	0.0006323799
245	0xbc881bd1	-0.016614826
246	0xbdaa4c64	-0.083153516
247	0xbd8779d6	-0.06615035
248	0xbd6cc5e5	-0.057805914
249	0xbcbba05c	-0.022903614
250	0xbd95bfd7	-0.07311981
251	0xbd3e48e8	-0.046456248
252	0xbd9af000	-0.075653076
253	0xba44d356	-0.0007508298
254	0xbb7a7cab	-0.003822128
255	0x3d8696ae	0.065717086

bias f4 [512]
0	0xbbecc441	-0.0072255437
1	0xbb9d9eb2	-0.0048101777
2	0x3bbe0294	0.005798647
3	0xbc3273b7	-0.010891846
4	0xbccadda3	-0.024763888
5	0xbb474371	-0.0030405188
6	0x3bceeb32	0.0063146586
7	0xbccc25a9	-0.024920302
8	0xbbc1ca58	-0.005914014
9	0xbd1fd1d2	-0.03901846
10	0x3cc074aa	0.02349313
11	0xbc6e36e8	-0.014539458
12	0xbc5ed76b	-0.013601164
13	0xbd4a1aa5	-0.049341816
14	0xbb7e00bc	-0.0038757762
15	0xbc207133	-0.009792614
16	0xbd06ecac	-0.03294055
17	0x3be68896	0.0070353253
18	0x3d358284	0.044313923
19	0xbccac8ba	-0.024753917
20	0xbc2b4360	-0.010453075
21	0x3ce81e84	0.028334863
22	0xbcc0c683	-0.023532158
23	0x3d195396	0.03743323
24	0x3d756935	0.059914786
25	0x3cc54b12	0.024083648
26	0xbca7ca65	-0.020482251
27	0x3cc1885f	0.023624597
28	0x3c8226c4	0.015887626
29	0xbc255bc9	-0.010092684
30	0x3cd05bae	0.025434341
31	0xbd4c4058	-0.04986605
32	0x3d14a331	0.036288444
33	0xbd91f4f8	-0.07126802
34	0x3d068831	0.032844726
35	0x3a88a3a6	0.0010424748
36	0x3cc2aaa9	0.023763018
37	0xbd086255	-0.0332969
38	0x3cf04582	0.029330019
39	0xbc0a3c87	-0.008437282
40	0x3cc8df04	0.024520405
41	0x3c89e739	0.016833888
42	0x3d8a13c7	0.067420535
43	0x3c8176ba	0.015803684
44	0x3c7b4823	0.015337023
45	0x3bfda621	0.0077407514
46	0x3c41de59	0.011832797
47	0xbcbb7ffe	-0.02288818
48	0xbc5febd5	-0.013667067
49	0x3c0dd9ef	0.008657916
50	0xbd3267b0	-0.043555915
51	0xbcb23255	-0.021752516
52	0xbc9051e5	-0.017617175
53	0x3c574ed2	0.013141351
54	0xbd164d9d	-0.03669511
55	0xbde5b8b7	-0.11216872
56	0xbabdf954	-0.0014493861
57	0xbcc09ea5	-0.023513148
58	0x3c9c686c	0.019092761
59	0xbc63e2d9	-0.013909065
60	0x3d2205a8	0.039556175
61	0xbd43c068	-0.047790915
62	0xbc5ec290	-0.013596192
63	0x3ba4133d	0.005007176
64	0xbd9b0515	-0.07569329
65	0x3d23df16	0.040007673
66	0xbb0ed6fa	-0.0021795616
67	0x3caa3770	0.020778388
68	0xbd1f56ec	-0.038901255
69	0xbc913077	-0.017723305
70	0x3c38a167	0.01126895
71	0xbcfa55e2	-0.03055853
72	0x3abbe73d	0.0014335882
73	0xbcf6a038	-0.030105695
74	0xbd651088	-0.05592397
75	0xbcf07b9b	-0.029355815
76	0x3beea719	0.007283103
77	0xbb6b75ac	-0.0035928292
78	0x3d3e54b6	0.046467505
79	0x3cf39297	0.029732985
80	0x3c9ffd7e	0.019530054
81	0x3b42c2fb	0.0029718268
82	0x3a9e4c79	0.0012077234
83	0x3ce09f69	0.027419763
84	0xbc786f9d	-0.015163329
85	0x3d87eeaa	0.066373184
86	0xbb06bbce	-0.0020558718
87	0xbc8ed90e	-0.017437484
88	0xbc3efa23	-0.011656317
89	0x3c9ea839	0.019367324
90	0x3c656e7c	0.014003392
91	0x3c24849c	0.010041382
92	0x3c5f25da	0.013619864
93	0x3c6f5ad7	0.01460906
94	0x3cf269f0	0.02959153
95	0x3bbe348d	0.0058046044
96	0xbbd4413f	-0.0064775045
97	0xbc0ea240	-0.008705676
98	0x3c214d3f	0.009845077
99	0xbb8111e9	-0.0039389026
100	0x3bbf35d9	0.0058352766
101	0xbb0ed4b1	-0.0021794254
102	0xbbdb9025	-0.006700533
103	0x3cefdf67	0.029281331
104	0xbc7925a6	-0.01520673
105	0xbcb87568	-0.022516921
106	0x3c24b16f	0.010052069
107	0xbdd947f0	-0.10609424
108	0xbd99ebea	-0.075157
109	0x3ce0313a	0.027367223
110	0xbd01c711	-0.031683985
111	0x3d228c9d	0.03968488
112	0x3c6283ba	0.013825351
113	0x3cd96ef9	0.026542174
114	0x3d3b2cc3	0.045696985
115	0xbc3f9ad2	-0.011694627
116	0x3bd5bd99	0.006522846
117	0xbc8000d0	-0.015625387
118	0xbda5780b	-0.08079537
119	0xbc29a6b6	-0.010354688
120	0xbd3eed62	-0.046613105
121	0x3c36f66a	0.011167148
122	0xbd0aed00	-0.033917427
123	0x3b1d3367	0.0023986937
124	0xbc7a7632	-0.015286969
125	0xbd14137a	-0.036151387
126	0xbcb048f8	-0.02151917
127	0x3b0c02a0	0.002136387
128	0xbd310f31	-0.04322738
129	0x3c7947c7	0.015214867
130	0x3cecc146	0.028900754
131	0xbc1dd9e4	-0.009634469
132	0xbd1d6029	-0.038421784
133	0x3c938cee	0.018011536
134	0x3cb18e18	0.0216742
135	0x3d47567e	0.04866647
136	0x3c7a8803	0.015291217
137	0xbc17e8e9	-0.009271839
138	0xbcd58be5	-0.026067683
139	0x3afef267	0.0019450904
140	0xbc30ce3b	-0.010791357
141	0x3bb1e30a	0.0054286765
142	0xbd153236	-0.036424838
143	0xbd8530fe	-0.06503485
144	0x3d0596e9	0.032614622
145	0xbc1bdd55	-0.009513219
146	0xbd159e6c	-0.036528036
147	0x3c4449c8	0.011980481
148	0xbca29b31	-0.019849392
149	0x3c18ee87	0.009334213
150	0x3cd316fc	0.025767796
151	0x3ca83c11	0.020536454
152	0x3c33d675	0.0109764235
153	0xbca0c54d	-0.01962533
154	0x3cdce0d6	0.026962679
155	0xbca5c6b3	-0.020236349
156	0x3be418a4	0.006960945
157	0xbac21f24	-0.0014810306
158	0xbb55cf49	-0.0032624772
159	0x3af32d12	0.0018552861
160	0xbc552688	-0.013009675
161	0xbc797ea8	-0.015227951
162	0x3bf4aabe	0.007466643
163	0xbb56a9da	-0.0032755048
164	0xbbb4a8f9	-0.005513307
165	0x3cf2f500	0.02965784
166	0xbd293d86	-0.04131844
167	0xbd817281	-0.06320668
168	0xbcbc239e	-0.022966202
169	0xbcf69a6b	-0.03010293
170	0xbbd65fde	-0.00654219
171	0xbc491bd2	-0.012274699
172	0xbccdcfec	-0.025123559
173	0x3d000dad	0.031263042
174	0x3b96a29a	0.0045970203
175	0x3c5a3e71	0.013320551
176	0x3d017b5a	0.031611778
177	0xbc670e74	-0.014102567
178	0x3ce5028c	0.027955316
179	0x3d01afe1	0.03166187
180	0xbc94eb68	-0.018178657
181	0x3c02c159	0.007980668
182	0x3b8d77fc	0.004317282
183	0xbc82cb5a	-0.015966106
184	0x3d09ed22	0.033673413
185	0x3bd58b50	0.0065168515
186	0xbd075578	-0.033040494
187	0x3d0f712d	0.035020042
188	0x3c89414e	0.016754773
189	0xbc8b4b80	-0.017003775
190	0x3c94cf4d	0.018165255
191	0xbd200ca8	-0.03907457
192	0x3cf6f60a	0.030146617
193	0x3cfbb863	0.03072757
194	0x3ccea81b	0.025226643
195	0x3ca51e79	0.020156132
196	0x3a3d7493	0.0007227149
197	0x3ce30f20	0.027717173
198	0x3d0f5b84	0.034999385
199	0x3cc29633	0.023753261
200	0xbcdb120b	-0.026742002
201	0xbc953efb	-0.018218508
202	0xbd85e437	-0.06537669
203	0x3c8accaa	0.016943295
204	0xbcad1e22	-0.021132533
205	0x3c7aeb97	0.015314958
206	0xbc6f7389	-0.014614948
207	0x3d086698	0.033300966
208	0xbcb3ee89	-0.021964328
209	0x3cdaf270	0.026726931
210	0xbd38e55b	-0.045140605
211	0x3cad66fd	0.021167273
212	0x3ba39600	0.0049922466
213	0x3bf224f2	0.007389658
214	0xbc74c601	-0.014939786
215	0x3cf4ace7	0.029867603
216	0xbd0c818f	-0.034303244
217	0xbccf0aee	-0.025273766
218	0x3c27494c	0.010210346
219	0x3d001fe6	0.03128042
220	0xbd5e7090	-0.054306567
221	0x3d20e7c1	0.039283518
222	0x3bd94001	0.0066299443
223	0x3ae7866d	0.0017663963
224	0x3be49b4f	0.006976522
225	0xbb40e3df	-0.0029432697
226	0x3d0e0232	0.034670062
227	0x3c3e137f	0.011601328
228	0x3a22a564	0.00062044547
229	0xbcdc7980	-0.026913404
230	0x3cbfbe9a	0.023406316
231	0xbceea34c	-0.0291306
232	0x3d0678fc	0.032830223
233	0x3cbaa53f	0.022783874
234	0xbcd87c12	-0.026426349
235	0x3b6c6234	0.0036069276
236	0xbc8791fd	-0.016549105
237	0x3cda2727	0.026629997
238	0x3c14bee9	0.00907872
239	0x3c9746ce	0.01846638
240	0x3cdfbd52	0.027311955
241	0x3c915aff	0.017743586
242	0x3cb9d2a7	0.022683455
243	0x3b833bf6	0.0040049506
244	0xbd4db4d1	-0.050221268
245	0xbb742d90	-0.0037258603
246	0xbb1bdbf1	-0.0023782218
247	0x3bb1165b	0.0054042763
248	0xbccebfa2	-0.025237862
249	0x3c55dc27	0.013052977
250	0x3a81cf85	0.0009903765
251	0x3c9d4630	0.019198507
252	0x3c42e0ba	0.011894399
253	0x3bc34cac	0.0059600677
254	0xbcce9a25	-0.025219986
255	0x3c6afcfe	0.014342545

weight f4 [128, 512]
0	0xbb7e7522	-0.003882714
1	0xbcfd91a3	-0.030953234
2	0xbd59bb5a	-0.053157188
3	0x3d72d200	0.059282303
4	0x3dd59a45	0.10429815
5	0x3cb5cc1f	0.02219206
6	0x3d8ce596	0.068797275
7	0x3d8e4fec	0.06948838
8	0xbdbd4242	-0.09241153
9	0xbd9e4626	-0.077282235
10	0x3dc0badf	0.09410643
11	0x3cbdabd1	0.023153218
12	0x3df07c11	0.11742414
13	0x3d1b7682	0.037954815
14	0xbd2e8a7c	-0.042612538
15	0x3cabea3e	0.020985719
16	0xbdba29f2	-0.09090032
17	0xbd81c9ca	-0.06337316
18	0x3dc11316	0.094274685
19	0xbe197408	-0.14985669
20	0xbcf7d3e1	-0.030252399
21	0x3d3feb96	0.04685553
22	0x3d6110bc	0.0549476
23	0x3d8bb721	0.068220384
24	0x3e038316	0.12842974
25	0x3d26a08a	0.040680446
26	0x3c3d5919	0.011556887
27	0x3c886ced	0.016653502
28	0xbd043a9f	-0.032282468
29	0xbd82acb3	-0.06380596
30	0xbc56a494	-0.013100762
31	0x3e03a65f	0.12856434
32	0x3dbd518e	0.09244071
33	0xbe803bb9	-0.25045565
34	0x3d7e0642	0.062017687
35	0xbcfd2a96	-0.030904096
36	0xbc7325b1	-0.014840529
37	0x3d901ed4	0.0703713
38	0x3d8bfe12	0.068355694
39	0xbde14a84	-0.11000541
40	0x3e2622ec	0.16224259
41	0x3c367865	0.011137103
42	0x3e9afe2b	0.3027204
43	0x3cb3cee7	0.021949245
44	0xbd35addd	-0.044355262
45	0xb9e5b753	-0.0004381487
46	0x3d328308	0.043581992
47	0x3ca7a016	0.020462077
48	0x3c9eb84d	0.01937499
49	0x3d1b9da2	0.037992127
50	0x3d03725b	0.03209148
51	0x3d1494c4	0.036274686
52	0x3e5a194e	0.21298715
53	0x3d75f165	0.060044665
54	0x3db92356	0.09039943
55	0xbcb9bad2	-0.02267209
56	0xbbc0b071	-0.0058804085
57	0xbcbf15ce	-0.023325827
58	0x3db0a825	0.08625821
59	0x3c54527a	0.012959117
60	0x3dc19ed3	0.094541214
61	0x3c6a228c	0.014290463
62	0xbb3fed86	-0.0029285862
63	0xbc7c4364	-0.015396927
64	0x3de42c62	0.11141278
65	0x3dbea354	0.09308496
66	0xbb70e22a	-0.0036755898
67	0x3d62bec5	0.055357713
68	0x3ddc3932	0.10753097
69	0x3e9c5d38	0.3053987
70	0x3d59764b	0.05309133
71	0x3db60633	0.08887901
72	0x3d566837	0.05234548
73	0x3e843098	0.25818324
74	0x3bd040c2	0.006355376
75	0x3d8003e1	0.0625074
76	0x3d94412d	0.07238994
77	0x3d82e11d	0.06390593
78	0x3da47790	0.08030617
79	0xbe35509e	-0.17706534
80	0x3cd9f004	0.026603706
81	0x3cc41e62	0.023940269
82	0x3d93363b	0.07188078
83	0x3d310d1f	0.043225404
84	0xbe061261	-0.13092948
85	0x3dc1fbda	0.09471865
86	0x3bf946f3	0.0076073348
87	0xbd93ba76	-0.07213299
88	0xbd3cc1b4	-0.046083167
89	0x3da89efd	0.082334496
90	0x3daeed5e	0.08541368
91	0xbd7f26df	-0.06229293
92	0xbd95b7eb	-0.0731047
93	0x3d6c73c1	0.05772758
94	0x3d02c840	0.031929255
95	0x3dafaeaf	0.0857824
96	0x3cf2f3f5	0.029657343
97	0x3d9720cd	0.07379303
98	0x3b5caa52	0.0033670855
99	0x3d02f466	0.031971358
100	0xbd56f7ac	-0.052482292
101	0xbab67d4f	-0.0013922843
102	0x3d8130da	0.06308146
103	0x3d377814	0.04479225
104	0x3d96675c	0.07343933
105	0x3df0eab4	0.11763516
106	0x3c67001b	0.014099146
107	0xbe438003	-0.19091801
108	0xbe1f0e46	-0.15532789
109	0x3d87c616	0.06629579
110	0xbc987b45	-0.018613467
111	0x3d27be4a	0.04095296
112	0x3d9108be	0.070817456
113	0x3d758a74	0.059946492
114	0x3e115b47	0.14194976
115	0x3d55223f	0.052034613
116	0xbce17a34	-0.027524091
117	0x3b3f31ed	0.0029174045
118	0xbdac35dc	-0.0840871
119	0x3cf31380	0.029672384
120	0xbd626899	-0.055275533
121	0xbc778139	-0.015106493
122	0x3e20dc95	0.15709145
123	0xbd477fcb	-0.048705857
124	0xbe134b64	-0.14384228
125	0xbdd24416	-0.102668926
126	0x3c07e3ca	0.008294055
127	0xbbdf72f3	-0.006819123
128	0xbce919af	-0.02845463
129	0xbbf39887	-0.007433954
130	0x3c9d3168	0.019188598
131	0xbd58e655	-0.052954037
132	0xbd9d6b04	-0.07686427
133	0x3cf0266e	0.0293152
134	0xbd602ea6	-0.054731987
135	0x3daa5c2c	0.08318362
136	0x3d65e3b8	0.056125373
137	0x3c7e4cb4	0.015521217
138	0xbe65497d	-0.22391315
139	0x3b188689	0.0023273549
140	0xbd7d940e	-0.061908774
141	0x3d7dfec0	0.062010527
142	0xbcd857b3	-0.026409006
143	0xbe56837e	-0.20948598
144	0x3dec9470	0.1155175
145	0xbcf1e07b	-0.029525986
146	0x3e01ae8c	0.1266424
147	0x3d7a6864	0.06113471
148	0x3d1f7d2a	0.038937725
149	0xbc1d1c44	-0.009589259
150	0x3d96e777	0.07368367
151	0x3cdb2b33	0.026753997
152	0x3d30c105	0.043152828
153	0xbcb2ded7	-0.021834774
154	0xbd3dc037	-0.04632589
155	0x3c600b67	0.0136745935
156	0x3d142c52	0.03617508
157	0xbb53fb80	-0.003234595
158	0x3cfc2ab5	0.030782083
159	0x3d12daee	0.03585332
160	0xbbef034d	-0.0072940947
161	0xbdd9b1c1	-0.10629607
162	0x3d26e72b	0.040747803
163	0x3d4cdd11	0.050015513
164	0x3d2527fd	0.04032134
165	0xbd4dabe6	-0.050212763
166	0x3d701872	0.058617063
167	0xbe55dcd0	-0.20885015
168	0xbe189559	-0.14900722
169	0xbddca07b	-0.10772797
170	0x3cc48a8a	0.023991842
171	0x3d557814	0.05211647
172	0xbe19be1d	-0.15013929
173	0x3dad8a3b	0.08473631
174	0xbd988096	-0.07446401
175	0xbdf557b2	-0.11979617
176	0x3d48c62d	0.04901712
177	0xbcca9cb5	-0.024732927
178	0x3d049669	0.032370005
179	0x3d589695	0.05287798
180	0x3d200350	0.03906566
181	0x3cbb902a	0.022895891
182	0x3dba0a8e	0.090840444
183	0x3d268106	0.04065039
184	0x3d23961b	0.039938074
185	0x3d8c750c	0.068582624
186	0xbd9e27bf	-0.07722425
187	0x3cdab6e1	0.026698532
188	0xbd582c1e	-0.05277645
189	0xbde1117b	-0.10989662
190	0xbd68e195	-0.056855757
191	0x3c574f06	0.013141399
192	0x3e3d898a	0.18509498
193	0x3af0a79b	0.0018360497
194	0x3e878de9	0.26475456
195	0xbc4d4bf0	-0.012530312
196	0x3c72bbc4	0.014815275
197	0x3d893e29	0.06701309
198	0x3dbd6baf	0.09249055
199	0xbc4a4ed0	-0.012347892
200	0x3b61b527	0.003444025
201	0xbcde9b42	-0.027173642
202	0x3dbb095d	0.09132645
203	0x3d72fe97	0.059324827
204	0x3c4adddf	0.012382
205	0x3d1e0fb4	0.038589194
206	0x3ddf265f	0.108959906
207	0x3d8a9212	0.06766142
208	0xbd35c3c7	-0.04437616
209	0x3d51f8f7	0.051262822
210	0x3e0c2b87	0.1368848
211	0x3d80c109	0.062868185
212	0x3cb448a9	0.022007303
213	0xbb71cc7e	-0.0036895568
214	0x3ce5da24	0.02805812
215	0x3b9dd3d7	0.004816513
216	0x3e054440	0.13014317
217	0xbe370245	-0.1787196
218	0xbc0e0def	-0.008670314
219	0x3d8a2b44	0.067465335
220	0x3eafa1c6	0.3430311
221	0x3d7174c9	0.058949266
222	0xbcdb32e6	-0.026757669
223	0xbc8ed5d1	-0.01743594
224	0xbcd92923	-0.026508873
225	0x3d7bef3b	0.061507445
226	0x3dbd5902	0.092454925
227	0x3c2e493a	0.010637576
228	0x3c545045	0.012958591
229	0xbda43905	-0.08018688
230	0x3cf182a6	0.029481243
231	0x3da3924d	0.07986889
232	0x3c5a04c2	0.013306798
233	0x3e010f95	0.126036
234	0x3b894a31	0.0041897525
235	0x3dd9ed96	0.10641019
236	0xbe34aecf	-0.17644809
237	0x3dad689a	0.08467217
238	0x3d171257	0.036882725
239	0xbe0ace88	-0.13555348
240	0x3d516eb9	0.051130984
241	0x3ba3c099	0.0049973247
242	0x3c024e7a	0.007953281
243	0x3da2caf3	0.07948866
244	0xbd8a1244	-0.06741765
245	0x3e989775	0.29803053
246	0x3d5fa92a	0.054604687
247	0x3c009f37	0.00785046
248	0xbe73faa2	-0.23826078
249	0x3d2d66f8	0.042334527
250	0xbd6fa6b9	-0.05850861
251	0xbd3ae3e6	-0.045627497
252	0xbd4d8d46	-0.050183557
253	0xbcc42151	-0.023941668
254	0x3e514f8a	0.20440498
255	0x3bdcb42a	0.0067353444

bias f4 [128]
0	0x3d7a0b6a	0.06104604
1	0x3d041bbc	0.032253012
2	0x3d7d4eb4	0.061842635
3	0xbbdfd452	-0.0068307305
4	0x3ccd19bb	0.025036683
5	0x3d8aa91a	0.06770535
6	0x3d9ee3c2	0.07758285
7	0x3d949676	0.07255261
8	0xbcb17515	-0.021662274
9	0x3d985a1e	0.074390635
10	0xbd4fa0a3	-0.050690304
11	0x3da1f610	0.07908261
12	0x3d24fdac	0.040280983
13	0x3e47e3ed	0.1952054
14	0x3bd860ef	0.0066033523
15	0x3d1251e2	0.03572262
16	0xbc715b30	-0.014731213
17	0xbde4bf8f	-0.111693494
18	0xbd2261da	-0.0396441
19	0x3da625a4	0.08112648
20	0x3d8b3aee	0.06798349
21	0x3d2981c4	0.04138352
22	0x3d72ec6d	0.059307504
23	0x3cb1f0f6	0.021721344
24	0x3e32c307	0.1745721
25	0xbd0ab789	-0.03386644
26	0xbcd86ae8	-0.026418164
27	0x3ceccc67	0.02890606
28	0xbcbef459	-0.023309873
29	0x3dc51820	0.09623742
30	0x3da64de3	0.081203245
31	0xbd3faa93	-0.04679353
32	0x3caa1495	0.020761767
33	0x38f667b4	0.0001174951
34	0xbc74527d	-0.014912245
35	0x3e29891e	0.16556212
36	0xbd0e0c4c	-0.034679696
37	0xbd2ff645	-0.04295947
38	0x3d12fa89	0.03588346
39	0x3d97471f	0.07386612
40	0x3d7f251b	0.062291246
41	0x3daed483	0.08536627
42	0x3c230c53	0.009951669
43	0xbe09988b	-0.13437097
44	0xbd3a242b	-0.04544465
45	0x3dd9ec1f	0.1064074
46	0x3ccc839c	0.0249651
47	0xbd740915	-0.059578974
48	0x3d18b4b3	0.037281703
49	0x3d7144b0	0.058903396
50	0xbcb9bf8c	-0.022674344
51	0x3c18160a	0.009282598
52	0x3ca4a0d7	0.020096226
53	0xbd0b3b90	-0.03399235
54	0xbd48f2aa	-0.049059547
55	0x3d54215d	0.05178963
56	0x3c6925ed	0.014230234
57	0x3d951719	0.07279796
58	0x3c9257b0	0.017864078
59	0x3d05c61c	0.032659635
60	0xbd08b67d	-0.03337716
61	0xbd468374	-0.048465207
62	0xbd327d95	-0.043576796
63	0x3dd3808a	0.10327251
64	0x3d0cb43f	0.034351584
65	0xbdfc9468	-0.12332994
66	0x3cb2b4ba	0.021814693
67	0x3d8b1052	0.06790222
68	0x3da11814	0.07865921
69	0xbc945491	-0.01810673
70	0x3dbfe5c8	0.09369999
71	0x3d5b1742	0.053488977
72	0x3dc981ff	0.09839248
73	0xbd0ff825	-0.03514876
74	0xbd96c649	-0.07362039
75	0xbd17b8b4	-0.03704138
76	0xbc630159	-0.013855302
77	0xbd810852	-0.06300415
78	0xbc0c1a89	-0.008551248
79	0x3c1f54d0	0.009724811
80	0x3dbfdcb3	0.09368267
81	0x3df3cf9e	0.11904834
82	0x3d2d490e	0.042306
83	0x3b2bf860	0.0026240572
84	0x3df4df27	0.119566254
85	0xbe517414	-0.20454437
86	0x3d94cbb9	0.072654195
87	0x3c04ddae	0.008109493
88	0x3dc3182a	0.09526093
89	0x3d2d126b	0.042253893
90	0x3c066f2f	0.008205219
91	0x3da6f2d2	0.08151783
92	0xbb0eb683	-0.0021776266
93	0x3d79e017	0.061004724
94	0xbc397bef	-0.011321052
95	0x3df6a5c2	0.120433345
96	0xbc927560	-0.017878234
97	0x3c7ee9b0	0.015558645
98	0x3c80f806	0.015743267
99	0x3d040f2b	0.032241028
100	0x3c21e5cc	0.009881448
101	0x3d146a3e	0.036234133
102	0xb9698840	-0.00022271369
103	0xbcf749a6	-0.030186485
104	0x3d099f81	0.03359938
105	0x3ccc81cf	0.024964241
106	0x3d0f71b0	0.03502053
107	0x3d8c3af8	0.06847185
108	0x3c4805ac	0.0122083835
109	0xbd2489c4	-0.040170446
110	0x3d286953	0.04111607
111	0x3a82e7ae	0.0009987259
112	0xbd0e8e16	-0.034803472
113	0xbd9fee70	-0.0780915
114	0x3d643725	0.055716652
115	0x3d9c6443	0.07636311
116	0x3d066b21	0.03281701
117	0xbcd159e7	-0.025555564
118	0x3d8f92ec	0.07010445
119	0x3e7c2700	0.24624252
120	0xbd22cc71	-0.03974575
121	0x3d489f56	0.04898008
122	0x3e13b22f	0.1442344
123	0x3ca5beb8	0.020232543
124	0x3da55422	0.08072688
125	0x3e383fef	0.17993139
126	0xbc5192d3	-0.012791353
127	0xbda55ba1	-0.080741175

weight f4 [32, 128]
0	0x3be4d322	0.006983177
1	0x3d1905c3	0.03735901
2	0x3dac5952	0.08415474
3	0x3ca8b258	0.020592853
4	0xbc8cf0f4	-0.01720474
5	0x3e789640	0.24276066
6	0x3d67b047	0.056564596
7	0xbd2a1148	-0.041520387
8	0x3d89bf88	0.06725985
9	0xbd52fae5	-0.051508803
10	0xbdcf4cc8	-0.10122067
11	0x3e4d3d36	0.20042881
12	0x3e220e2e	0.15825722
13	0x3e703a20	0.23459673
14	0xbc483548	-0.0122197345
15	0x3e9642c8	0.29347825
16	0x3e880523	0.2656642
17	0x3e1a8dea	0.15093198
18	0x3c6f0a38	0.014589839
19	0x3d825a28	0.06364852
20	0x3d3ad5be	0.045613997
21	0x3dde41d1	0.10852397
22	0xbc870981	-0.016484024
23	0x3dba52ab	0.09097799
24	0x3dea1fd9	0.11431856
25	0x3d599558	0.05312094
26	0x3db84aaa	0.08998616
27	0x3d827a4e	0.06370984
28	0xbcabaeb2	-0.020957325
29	0x3e04131e	0.12897918
30	0x3e14ea46	0.14542493
31	0x3c895af8	0.01676701
32	0x3d830703	0.06397822
33	0x3e9ace89	0.302357
34	0xbd93cc86	-0.07216744
35	0x3d85bea0	0.065304995
36	0xbd90dd09	-0.07073409
37	0xbcafd493	-0.021463668
38	0x3e1ed0fb	0.15509407
39	0x3de917b8	0.11381477
40	0x3e09f869	0.13473667
41	0x3e230a1f	0.1592183
42	0x3d686768	0.05673924
43	0x3d29636b	0.041354578
44	0x3eaf1d2a	0.34201938
45	0x3e01e818	0.12686193
46	0xbbb521d3	-0.005527714
47	0xbdb0fd68	-0.086420834
48	0x3e153fb0	0.14575076
49	0x3e21bd10	0.15794778
50	0x3c9b02ce	0.018922236
51	0x3e8cdf8c	0.27514303
52	0xbd2ae145	-0.04171874
53	0x3e96483d	0.29351988
54	0xbd2b653d	-0.041844595
55	0x3d783692	0.060598917
56	0xbd8d480a	-0.06898506
57	0x3e0d8f2d	0.13824148
58	0x3e0962f9	0.13416661
59	0x3e3e5922	0.18588689
60	0xbc2aa5f0	-0.010415539
61	0xbc6ca98b	-0.014444719
62	0x3c216836	0.009851506
63	0x3e528db3	0.20561866
64	0xbca7a1e0	-0.02046293
65	0x3ebba91d	0.3665246
66	0x3db3d4dc	0.08780834
67	0x3e11689d	0.14200063
68	0x3e213163	0.15741496
69	0x3dd1a3b4	0.10236302
70	0x3c41e98d	0.011835468
71	0x3e5e0ff6	0.21685776
72	0x3e19df8b	0.15026681
73	0x3d51069b	0.05103169
74	0xbc2db0d5	-0.010601242
75	0x3d07a75d	0.033118594
76	0xbdc2a5fb	-0.095043145
77	0x3d031695	0.032003958
78	0xbc4c15fa	-0.0124564115
79	0x3e3f91a1	0.18707897
80	0x3c0b7e20	0.008513957
81	0x3ddd7b4b	0.10814532
82	0x3de324f7	0.11091035
83	0x3da5094d	0.080584146
84	0x3dd166a4	0.10224655
85	0x3e82df98	0.25561213
86	0x3e19d7e0	0.15023756
87	0xbacb1fad	-0.0015497111
88	0x3d9632e8	0.07333928
89	0x3ce56717	0.028003259
90	0x3d73f712	0.059561796
91	0x3d4cc37b	0.049991112
92	0xbc94c248	-0.018159047
93	0x3d98b932	0.07457198
94	0xbdaabc38	-0.08336681
95	0x3d768165	0.060181994
96	0xbc8ac282	-0.016938452
97	0x3ca86a01	0.02055836
98	0xbdbb81c1	-0.09155608
99	0x3d8de0ee	0.069276676
100	0x3e003368	0.1251961
101	0xbd78c158	-0.060731262
102	0xbd400163	-0.046876322
103	0x3da9ad78	0.0828504
104	0x3e011bfd	0.12608333
105	0x3e37966f	0.1792848
106	0x3e38a53c	0.18031782
107	0x3d743bc1	0.0596273
108	0x3dfeff74	0.124510676
109	0xbde8a4ff	-0.113595955
110	0x3e0315ea	0.12801328
111	0xbd075342	-0.033038385
112	0x3d06cb0a	0.032908477
113	0xbd425774	-0.047446683
114	0x3dbc8647	0.09205299
115	0x3e12af6d	0.14324732
116	0xbdbe4cbf	-0.09291982
117	0x3da9a4db	0.08283397
118	0x3e1e8da2	0.15483716
119	0x3dc0ee90	0.09420502
120	0x3c9b2d0d	0.01894238
121	0x3e2c5680	0.16829872
122	0x3e36ce4b	0.17852132
123	0x3e473f24	0.1945768
124	0x3e4d6469	0.20057835
125	0x3df698c1	0.12040854
126	0x3d335090	0.043778002
127	0xbcc4c6e5	-0.024020622
128	0xbdb18143	-0.08667233
129	0xbe1b8d0b	-0.15190522
130	0x3d713e4b	0.058897298
131	0x3d7c7632	0.061636157
132	0x3cf34be3	0.029699272
133	0xbd558caa	-0.0521361
134	0xbc6c205e	-0.014412014
135	0xbdb5242b	-0.08844789
136	0xbd87e66e	-0.06635748
137	0xbdb70c06	-0.0893784
138	0x3d668e8e	0.056288294
139	0xbd80c0c2	-0.06286766
140	0x3c43e1cd	0.011955691
141	0x3cc082ef	0.023499934
142	0xbe2163e2	-0.15760759
143	0xbdd86c07	-0.105674796
144	0x3c842532	0.016131017
145	0x3e099ab1	0.13437916
146	0x3d3c548e	0.045979075
147	0xbc047b41	-0.008086027
148	0x3ce97423	0.028497761
149	0xbdb8872d	-0.09010158
150	0xbd139390	-0.0360294
151	0xbda8824f	-0.082279794
152	0x3d3c7e25	0.04601874
153	0xbda1951f	-0.07889771
154	0x3cc78a80	0.024358034
155	0xbcaf18db	-0.021374157
156	0xbd262132	-0.040559
157	0xbdd5089a	-0.10402031
158	0xba951a93	-0.0011375718
159	0xbd870f65	-0.06594733
160	0x3deae1a4	0.11468819
161	0x3cef9d38	0.029249772
162	0x3d4f3cd6	0.050595127
163	0x3d922599	0.071360774
164	0xbdf15ac5	-0.11784891
165	0x3d78a9da	0.060708858
166	0xbe256167	-0.16150437
167	0xbdfd3455	-0.12363497
168	0x3c147ac6	0.009062475
169	0x3c4a76ef	0.012357458
170	0xbcea2ff0	-0.028587312
171	0xbbc8a2f2	-0.00612294
172	0xbd26acc8	-0.04069212
173	0xbe0c8794	-0.13723594
174	0x3d9922d5	0.07477347
175	0x3d5f9a1e	0.054590337
176	0x39c91a8f	0.00038357495
177	0xbd3699fa	-0.044580437
178	0x3d6edc36	0.05831548
179	0x3d562d2a	0.052289166
180	0xbd228312	-0.03967578
181	0xbd872e21	-0.06600595
182	0xbd44fad0	-0.048090756
183	0x3c5bbea5	0.013412152
184	0x3ac654c0	0.0015131459
185	0x3d7e9bae	0.062160186
186	0xbdc65783	-0.0968466
187	0x3d651ce5	0.05593576
188	0x3d6c70ae	0.057724647
189	0x3d9125b5	0.0708727
190	0xbd8003c8	-0.06250721
191	0xbcfe4bb8	-0.031041965
192	0x3d6e40ef	0.058167394
193	0xbccd0ddc	-0.025031023
194	0xbd9fa861	-0.077957876
195	0xbded49f8	-0.11586374
196	0xbe255036	-0.1614388
197	0xbe5807bf	-0.21096705
198	0xbd9da1f1	-0.076969035
199	0xbd2f65c2	-0.042821653
200	0xbda5238a	-0.08063419
201	0x3d07d616	0.033163153
202	0xbd4d6d96	-0.050153337
203	0xbc519ea8	-0.012794174
204	0x3d18fce7	0.03735056
205	0xbcdf2550	-0.027239472
206	0xbada6832	-0.0016663133
207	0x3d3172c9	0.04332236
208	0xbe0a09fc	-0.13480371
209	0xbda09350	-0.07840598
210	0xbdd4c037	-0.103882246
211	0xbd111fc1	-0.035430674
212	0x3cbc3e32	0.022978876
213	0x3c14803d	0.0090637775
214	0xbcee9fa2	-0.029128853
215	0x3b8f0476	0.0043645455
216	0xbcbc4ed2	-0.022986803
217	0xbd40d652	-0.04707939
218	0x3dad2d13	0.08455863
219	0x3d82d3f5	0.06388084
220	0x3d12f58c	0.035878703
221	0xbc8db3e0	-0.017297685
222	0xbbdf842f	-0.0068211774
223	0xbd324415	-0.04352196
224	0x3d309486	0.043110393
225	0x3e189e7a	0.14904204
226	0x3d68b9c8	0.0568178
227	0x3bbdd1b0	0.005792819
228	0x3e25d900	0.1619606
229	0xbda0bf66	-0.07849006
230	0xbd272143	-0.040803205
231	0x3cd25289	0.025674121
232	0xbd9fa1ee	-0.077945575
233	0xbdec52db	-0.11539241
234	0xbd3ab191	-0.045579497
235	0xbd754751	-0.059882466
236	0x3d870ba2	0.06594016
237	0x3dc66276	0.09686749
238	0x3da55dea	0.08074553
239	0xbd211015	-0.039321978
240	0x3d2503d6	0.04028686
241	0x3d54fac6	0.05199697
242	0xbe20a359	-0.15687312
243	0x3d3533ac	0.04423873
244	0xbe017f3f	-0.12646197
245	0x3db38e57	0.087673835
246	0xbe276f79	-0.16351117
247	0xbb1e0f1e	-0.0024117897
248	0x3c86488c	0.016392015
249	0xbd19ae5f	-0.03751981
250	0xbd579eb9	-0.052641604
251	0xbcd4bde0	-0.025969446
252	0x3d61d44c	0.055134103
253	0xbdc3c6a1	-0.0955937
254	0xbd949932	-0.07255782
255	0xbd2e0b51	-0.04249126

bias f4 [32]
0	0x3e3d57d3	0.18490534
1	0xbd7f1823	-0.062278878
2	0x3cfe6c1f	0.031057416
3	0xbd8c4bff	-0.068504326
4	0xbb81be56	-0.0039594574
5	0x3e327603	0.1742783
6	0x3d9e1f54	0.07720819
7	0xbe36534b	-0.17805211
8	0x3e133886	0.1437703
9	0x3cbffa26	0.02343471
10	0x3dc8d575	0.09806339
11	0x3e47529c	0.19465107
12	0x3e2aac24	0.16667229
13	0x3ddb119d	0.10696719
14	0xbdc7cc4b	-0.09755763
15	0x3db23ca3	0.08702972
16	0x3e49aea3	0.19695525
17	0xbe87519a	-0.26429445
18	0xbc8df814	-0.017330207
19	0x3e124f22	0.14288
20	0xbca8ca55	-0.020604292
21	0x3e8648d0	0.26227427
22	0x3e1e37f5	0.15451033
23	0xbe396611	-0.18105341
24	0xbe8a7c1f	-0.27047822
25	0x3dde7186	0.108614966
26	0x3dbfa53d	0.093576886
27	0x3c918e8e	0.01776817
28	0xbb9b3225	-0.0047362023
29	0x3dc4449b	0.09583398
30	0x3d9582e0	0.07300353
31	0x3e5334f0	0.20625663

weight f4 [4, 32]
0	0x3e0174d7	0.12642227
1	0xbe069570	-0.13142943
2	0xbe10f52c	-0.14156026
3	0x3d8450d3	0.064607285
4	0x3e82c327	0.25539514
5	0x3dba94f4	0.09110442
6	0x3e881776	0.265804
7	0xbeb94bd2	-0.3619066
8	0x3eeeb514	0.46622527
9	0x3d88bac9	0.066762514
10	0x3e6f2b06	0.23356256
11	0xbce3cc50	-0.027807385
12	0x3d279da9	0.04092184
13	0xbe3994e6	-0.18123206
14	0x3e000b9f	0.12504433
15	0x3dca7dc1	0.09887267
16	0x3d9f6168	0.07782251
17	0xbe406fe6	-0.18792686
18	0x3e912eda	0.28356057
19	0xbe314d56	-0.17314658
20	0x3d2c2669	0.04202882
21	0x39a3f39e	0.00031271292
22	0xbd9daea1	-0.076993234
23	0xbe039abc	-0.12851995
24	0xbe9581db	-0.29200634
25	0xbb87ade7	-0.004140604
26	0xbd01d692	-0.03169877
27	0x3e83fbf6	0.25778168
28	0x3d1960d3	0.037445854
29	0x3e5a4b09	0.21317686
30	0x3eb2c2ba	0.3491419
31	0x3efbf4d4	0.49210227
32	0x3e556fe8	0.2084347
33	0xbdaba80f	-0.08381664
34	0x3e40110a	0.187565
35	0xbc805f11	-0.015670331
36	0xbc444909	-0.011980304
37	0x3e2038d5	0.1564668
38	0xbe5388a2	-0.2065759
39	0xbeac61b5	-0.33668295
40	0x3ce843e2	0.028352682
41	0xbe5770a0	-0.21039057
42	0xbe8388a9	-0.256902
43	0x3e19f4db	0.15034811
44	0x3e80e1d4	0.25172293
45	0x3e922851	0.28546384
46	0x3e3c0462	0.18361047
47	0xbe913bdd	-0.28365985
48	0x3e388720	0.18020296
49	0xbe33e413	-0.17567472
50	0xbd6acfa9	-0.057326946
51	0x3e8269d9	0.2547138
52	0xbe6b5610	-0.22982049
53	0x3e8ac1ce	0.27100986
54	0x3e986f14	0.29772246
55	0xbe71c6ec	-0.23611039
56	0xbe8f3740	-0.2797184
57	0x3e7972a7	0.24360143
58	0xbe9397c2	-0.2882672
59	0xbeb7f47a	-0.35928708
60	0x3ea1fb5a	0.3163708
61	0xbea8b2fd	-0.32949057
62	0xbe9622c6	-0.29323405
63	0xbf076059	-0.5288139
64	0x3e4003b5	0.18751414
65	0xbd8a650d	-0.06757555
66	0xbda3ec8b	-0.08004101
67	0xbba888ab	-0.005143245
68	0xbe1cdd2e	-0.15318748
69	0x3e220dd9	0.15825595
70	0xbe6337ec	-0.22189301
71	0xbe21fb0b	-0.15818422
72	0xbb884e79	-0.0041597453
73	0xbc40f147	-0.011776275
74	0xbd970964	-0.07374838
75	0x3de57313	0.11203589
76	0x3d118834	0.035530284
77	0x3dbf0e3f	0.09328889
78	0x3c35901f	0.011081724
79	0xbe5318b6	-0.20614895
80	0x3d552eeb	0.052046698
81	0xbd72e369	-0.059298906
82	0xbdcb9dea	-0.09942229
83	0xbd7aaf1d	-0.061202157
84	0xbe8e7f4a	-0.2783149
85	0x3dbc7237	0.09201472
86	0x3d690e61	0.05689848
87	0xbe5a5396	-0.21320948
88	0xbe8dfe21	-0.27732947
89	0x3e00cf01	0.12578966
90	0x3d98c93a	0.07460256
91	0xbe16e368	-0.14735186
92	0xbc833e99	-0.01602106
93	0xbdd48485	-0.103768386
94	0xbd636053	-0.055511784
95	0xbe43a392	-0.19105366
96	0x3de350ff	0.11099433
97	0x3c69888c	0.014253747
98	0xbe4869a9	-0.19571556
99	0xbd16baff	-0.036799427
100	0x3e74239f	0.23841713
101	0x3df6a5cc	0.12043342
102	0x3e6c65bc	0.23085684
103	0xbec20c99	-0.37900236
104	0x3f043df2	0.5165702
105	0x3ea2dcf9	0.31809214
106	0x3e7c7e23	0.24657492
107	0x3dd23585	0.10264114
108	0xbe08d083	-0.13360791
109	0xbdbd6974	-0.09248629
110	0xbd95889c	-0.07301447
111	0x3e8d4af8	0.2759626
112	0x3e01a3ba	0.12660113
113	0xbedd1558	-0.43180346
114	0xbcd3cce2	-0.025854532
115	0xbde1ab44	-0.110189945
116	0x3c0aceec	0.008472186
117	0x3e2e679b	0.1703171
118	0x3cc5c447	0.024141444
119	0xbe55a9d3	-0.20865564
120	0xbeb32658	-0.3499019
121	0xbe4bf8e4	-0.19919163
122	0x3e2ce7ef	0.1688535
123	0x3e15aa14	0.14615661
124	0xbde242da	-0.11047907
125	0x3e9c2a70	0.30501127
126	0x3e5ee296	0.21766123
127	0x3e169a99	0.14707412

bias f4 [4]
0	0xbae6ab77	-0.0017598708
1	0x3e4932c5	0.19648273
2	0xbc440aaa	-0.011965433
3	0xbdae98ff	-0.085252754

weight f4 [1, 4]
0	0x3edc7dff	0.43064877
1	0xbefa5702	-0.48894507
2	0xbdbe31ad	-0.09286819
3	0x3f1ccc24	0.61248994
