model/model_KR.pkl (torch, 748258 bytes, 13 tensors)

weight f4 [512, 220]
000000 d9 a7 20 be 4a c5 4d be 97 cd 55 be db b0 78 be
       -0.15689029 -0.20094791 -0.20879208 -0.24286215
000010 cb 67 67 be 5c 24 ef 3d 97 00 26 be 52 89 6a be
       -0.22598188 0.11676857 -0.16211163 -0.22903946
000020 65 6d e3 bd 30 8d f0 bd d6 46 20 be 39 7b eb bd
       -0.1110485 -0.117456794 -0.15652022 -0.11498112
000030 96 b9 00 be dc a2 2d bd 2e 62 da bd 97 3a 4f bd
       -0.12570795 -0.042391643 -0.106632575 -0.050592985
000040 3a cc 42 3e 53 87 aa 3b 25 58 ba 3b 2b 0c 79 bd
       0.19023219 0.00520412 0.005686777 -0.06080262
000050 7f 9a e6 bd e3 93 58 bd f0 08 68 bb e8 6d d6 bc
       -0.112599365 -0.05287541 -0.0035405718 -0.026175454
000060 32 f8 4b 3d 8d 82 6e 3c 5b 23 d0 3c c8 b2 3a 3e
       0.049797244 0.014557493 0.025407484 0.18232262
000070 d4 95 83 3c 92 21 54 bd 67 12 30 3a e9 59 d8 3c
       0.016062655 -0.051789828 0.00067166094 0.02641006
000080 fe 29 1c 3d 0e 04 2c 3c db 90 a9 3d f9 25 8a bb
       0.038125984 0.010499014 0.08279582 -0.0042159525
000090 11 81 63 bc 4d b0 a0 3d 20 c5 29 3e 3d 5a 34 3d
       -0.013885752 0.07846127 0.16579103 0.04403137
0000a0 13 6e a4 3d 62 78 9d bc ea f8 72 3d 4f 00 3d bd
       0.080288075 -0.019222442 0.059319414 -0.046142872
0000b0 00 fe d2 3d 94 87 d1 3d da d0 e8 3d 0d 5d e9 3c
       0.10302353 0.102309376 0.1136796 0.028486753
0000c0 50 8d 0c 3b 87 fb 00 3e 27 f3 e1 3c 70 0a 58 3d
       0.0021446534 0.1259595 0.027581764 0.05274433
0000d0 09 82 80 bc 4f ea 66 3d 08 8d 71 3d ef 2b 9d 3d
       -0.015687006 0.056375798 0.05897239 0.07674395
0000e0 c6 72 e5 3d 7b 46 e1 3d 69 09 71 3d 41 54 66 3d
       0.11203532 0.10999771 0.058846865 0.056232695
0000f0 40 5e ec 3d 3c 1c 70 3d 78 11 9f 3d 5c 9f ae 3d
       0.11541414 0.058620676 0.07767004 0.08526489
000100 ac f2 c5 3d 34 eb 7f 3d 65 7c 14 3e 3e 9e 17 3e
       0.096654266 0.062480167 0.14500578 0.14806458
000110 d0 6e a6 3d 07 c2 8f 3d 6f f2 3b 3e 7c 53 e2 3d
       0.081266046 0.0701943 0.183542 0.1105108
000120 db 64 aa 3d 9d 46 e4 3d b2 77 38 3d 60 02 e4 3d
       0.08320018 0.11146281 0.045036025 0.111332655
000130 a0 8f bb 3d a0 dd 7d 3e 68 57 7e 3e 1c 50 0a 3e
       0.09158254 0.24791574 0.2483803 0.13507122
000140 80 b6 51 3e e1 55 33 3e 80 9c 4f 3e ff 89 68 3e
       0.20479774 0.17513229 0.20274544 0.22708891
000150 24 b7 3a 3e ab 1d 18 3e df bb 26 3e bf 7d 29 3e
       0.18233925 0.14855067 0.16282605 0.16551875
000160 31 9c 71 3e 7d 7d 9d 3e 85 a8 5a 3e 01 77 90 3e
       0.23594739 0.30759802 0.21353348 0.28215793
000170 a1 43 9c 3e 53 d5 98 3e d7 99 63 3e 7e dd 72 3e
       0.30520347 0.29850253 0.22226654 0.23717305
000180 7c 23 35 3e 46 28 8c 3e 40 1a a1 3e 80 81 af 3e
       0.17689317 0.27374476 0.3146534 0.34278488
000190 33 a3 a2 3e b7 a0 bc 3e 28 79 91 3e aa b8 96 3e
       0.31765136 0.36841366 0.28412747 0.29437762
0001a0 c3 88 ad 3e 3d fb c1 3e 72 2c 88 3e cb 24 8f 3e
       0.33893403 0.37886992 0.2659641 0.27957758
0001b0 27 fe 91 3e a8 d5 c6 3e 67 fa ce bc 0a 69 41 3e
       0.28514215 0.38834882 -0.025265886 0.18887725
0001c0 63 c5 43 3e 58 c4 07 bd 49 87 8b be 21 dd 19 be
       0.19118266 -0.033146232 -0.27251652 -0.1502576
0001d0 36 c9 c5 3d 2d 47 8f 3c 84 28 da bd 02 e8 90 3d
       0.096575186 0.017489994 -0.10652259 0.07075502
0001e0 7e e8 8d 3d 0f e9 74 bc 9e 4b b7 bc 78 e7 39 bd
       0.0692911 -0.014948144 -0.022374924 -0.04538676
0001f0 c9 63 d9 bd 52 36 08 bd c0 82 46 bd fe f8 dc 3c
       -0.10614736 -0.03325493 -0.048464537 0.026974197
000200 cd 26 84 3d 24 9b 86 3d 88 22 ac 3d c8 03 99 bc
       0.06452713 0.065725595 0.08405024 -0.01867856
000210 67 15 01 3e f2 43 55 3c c7 75 ab bb b5 d2 26 3d
       0.1260582 0.013016688 -0.005232546 0.04072829
000220 95 4b e3 bd 34 44 44 bd 16 bb 57 3b a1 f5 06 3e
       -0.110984005 -0.047916606 0.0032917908 0.13179637
000230 c5 f6 4b bc 09 6a 1f be ce 6c 0e 3d cd ad f2 3c
       -0.012448971 -0.15567793 0.034771733 0.02962389
000240 aa d5 d4 bc 49 54 26 3d dc ed fc bd b5 b8 81 bc
       -0.02598079 0.040607724 -0.123500556 -0.015835145
000250 e4 e3 13 3c f7 22 89 3d 42 d1 aa 3d c8 98 53 bc
       0.009026501 0.06696122 0.08340694 -0.012914844
000260 fb b4 86 bd ca c6 5e bb 9c 40 0f 3d 05 b6 cb bb
       -0.06577488 -0.0033993 0.034973726 -0.006216767
000270 e5 a3 51 bd 84 30 a7 bd 57 43 77 bd 5d 73 d5 3d
       -0.051181693 -0.081635505 -0.060366955 0.104223944
000280 dc cf ed 3c e4 d8 d7 3b 0c 72 86 3c 03 e6 00 bd
       0.02902978 0.0065871347 0.016411804 -0.031469356
000290 32 f1 30 bd 91 cd 83 3d 3c 10 03 bc 1c dc a9 bd
       -0.04319877 0.06435693 -0.007999476 -0.08293936
0002a0 b1 2e 3b 3d 41 e6 9e 3d af f4 6b 3d 3b cc ce bd
       0.045698825 0.07758761 0.057606395 -0.100975476
0002b0 31 22 0b bd 63 ca 0c 3c 19 b7 db 3c 7c a4 ce 3d
       -0.033968154 0.008593175 0.026820706 0.10089967
0002c0 53 68 a0 3c 6e 68 99 bd 6d f3 42 3d d0 07 bd 3d
       0.019580996 -0.074906215 0.04759543 0.09230006
0002d0 34 a5 85 3d 1b 40 92 bd 60 a1 12 3d 0f 74 85 3d
       0.065256506 -0.071411334 0.03579843 0.06516277
0002e0 ce 2e c6 bc 76 2c 0a 3e dd fa 68 3d ac 82 b7 3c
       -0.02419224 0.13493523 0.056879867 0.022401176
0002f0 4d 94 c3 bc d9 3b 8f 3c 19 97 c8 3d 34 a5 4e bd
       -0.023874426 0.017484592 0.097944446 -0.05045052
000300 28 c1 8b bd d7 91 a8 3d 6c 57 23 3d d0 9c 12 3d
       -0.06823951 0.08230942 0.039878294 0.03579408
000310 6a 1d 6c 3d 06 0f a5 bd f3 91 da 3c c9 ab 59 3d
       0.05764524 -0.08059506 0.026680922 0.053142343
000320 dd 11 62 3d 10 d5 54 be fc bb f0 bd 66 f0 3e bd
       0.055192817 -0.20784402 -0.11754605 -0.04661598
000330 ae c4 3c 3d 16 2b be 3d 8e d2 c4 3d fb 47 be bd
       0.046086006 0.09285562 0.096104726 -0.09291073
000340 10 43 45 bd ca 0e d7 3c a1 aa 8b 40 76 8c 4f 40
       -0.04815966 0.02625217 4.3645787 3.242948
000350 4c 37 0e 40 b5 7b f0 3f bb 4f c8 3f d6 ea bb 3f
       2.222125 1.8787752 1.5649332 1.4681041
000360 c7 8e ba 3f 13 1e a1 3f 24 f7 79 3f 14 15 53 3f
       1.4574822 1.2587303 0.9764273 0.8245404
000370 2b 8f 49 3d 3f ef c1 3d f9 e5 30 3e 63 a5 35 3e
       0.0492088 0.09469461 0.17275228 0.17738871
000380 99 b7 aa 3d ea ec 3d bb 6e 53 d2 3d 73 68 fa 3d
       0.083358 -0.0028980323 0.10269819 0.12226953
000390 ca 9f 7b 3d 25 ff c2 3c 78 6a cc 3d 3a 80 84 3d
       0.061431684 0.023803303 0.09981245 0.0646977
0003a0 1a 86 62 3d df 4d 11 bd 4f e5 60 bd cc c8 49 bd
       0.05530367 -0.035474654 -0.054906186 -0.04926376
0003b0 2e c4 e9 bd 2d 9a 34 bd d3 2e 17 bd 49 2f 42 bd
       -0.114143714 -0.044092346 -0.03690989 -0.047408376
0003c0 ee 50 49 bd 8a a3 00 3d 89 96 d0 bd 08 3f d9 bd
       -0.049149446 0.031405963 -0.10184962 -0.106077254
0003d0 1c 58 99 bd e0 d5 53 bd d0 b2 3a bd 87 c7 e4 bd
       -0.07487509 -0.05171764 -0.045580685 -0.11170869
0003e0 23 a9 2c be 14 33 7a bd 0a b0 47 bd 41 bd cb bc
       -0.16861396 -0.06108387 -0.04875187 -0.024870517
0003f0 85 95 86 bd 9f 7b 16 bd 43 53 96 bd 9a 10 d7 bd
       -0.06571487 -0.036738988 -0.073401 -0.10501213

bias f4 [512]
000000 9b bc 27 3c 5f 22 83 3d b9 51 14 bd 01 c4 22 bd
       0.010237838 0.0640304 -0.03621075 -0.039737705
000010 85 da 47 3d 4f b0 a6 bc 8d 2e 10 bd 0c e4 61 bd
       0.04879238 -0.020347742 -0.035200644 -0.055149123
000020 67 78 7d 3d c8 4d c8 3c d6 e9 36 3c 1b ca 7d bd
       0.061882403 0.024451151 0.011164149 -0.06196032
000030 99 35 60 3d 65 e8 6c bd 17 10 63 bc 74 42 33 3b
       0.054738615 -0.057838816 -0.013858817 0.0027352842
000040 0b 2b f0 bb 5f a0 ae bc 18 fa 75 3d 55 bc 85 bd
       -0.00732935 -0.021316705 0.06005296 -0.06530062
000050 ed b1 86 bd 3d 5d 4e 3d cd 6f 68 3d 52 63 19 bd
       -0.065769054 0.050381888 0.056747247 -0.037448235
000060 0f db 34 bc 92 27 fc 3c 53 5b 66 bd 72 f1 cb 3c
       -0.011038556 0.030780587 -0.056239437 0.024895404
000070 ed bc 1c bd 79 c7 c6 3b 79 a0 09 3d d3 8a 74 bd
       -0.03826611 0.0060662595 0.033600304 -0.059702706
000080 37 b1 86 bc 3a b4 00 3d 5e c5 03 3d 85 0a 5a bd
       -0.016441924 0.031421877 0.032170646 -0.05323269
000090 6f 06 d6 3c 5f 10 d1 bc 67 1e c4 3c 4d 72 67 3d
       0.026126115 -0.025520502 0.023940278 0.05650549
0000a0 ac 1c 08 3d b0 73 17 3d e5 77 55 3d 67 81 c0 39
       0.03323047 0.036975563 0.052116293 0.00036717506
0000b0 d8 fc 21 bd 4f ba 7f bd ba 5d 6a 3d 26 2b 51 bd
       -0.03954777 -0.062433537 0.05721829 -0.05106654
0000c0 d6 10 1a 3d 49 eb 4e 3d b1 52 b6 3a 64 1e 29 bd
       0.037613712 0.050517354 0.0013910142 -0.04128875
0000d0 b1 6c ce bc 0d d0 dd 3c 17 f2 7c bd 0e 83 40 3c
       -0.025198312 0.027076745 -0.061754312 0.011749996
0000e0 91 bf 7b 3d f0 e1 37 3d 25 5e 48 3d a6 80 87 bc
       0.06146199 0.044893205 0.04891791 -0.016540837
0000f0 f0 41 49 3d 4c d3 78 bd eb 35 86 3d ef 19 2a bd
       0.04913515 -0.060748383 0.06553253 -0.04152864
000100 03 24 b2 3c 46 82 83 bd 59 2c 5c 3d 51 4e 18 3d
       0.021745687 -0.06421332 0.05375323 0.037184063
000110 bb 5c 23 3d a2 c1 58 3d bb 59 9a bb 13 67 58 3d
       0.039883357 0.052919038 -0.0047104037 0.052832674
000120 35 82 14 3d ae 22 31 3d 21 35 74 bd 1e e1 89 3b
       0.036256988 0.043245964 -0.05962098 0.0042077443
000130 4e a1 34 3d 36 84 b3 bc 8c 71 45 bd eb 52 5c bd
       0.044099145 -0.021913629 -0.04820399 -0.053790014
000140 54 80 3d bb 0b ca 24 3d 7a de 88 3d f2 5a c1 bc
       -0.00289156 0.040231746 0.06683059 -0.023602936
000150 ac 58 41 3d ed da d0 3b ee 9f 83 3d d9 32 68 3a
       0.047203705 0.0063737542 0.064269885 0.00088576745
000160 f4 72 5a 3c f6 3f 35 bd 2b ce c7 bc f6 47 7c bd
       0.013333071 -0.04425045 -0.0243903 -0.061592065
000170 4d 02 35 3c 64 8c 50 bd a4 ca 4a bd db 27 ff bc
       0.011047912 -0.050915137 -0.04950966 -0.031146934
000180 f7 ed 26 bd 7c 2b 8d bc ad be 8a bc 2e 4e 27 bd
       -0.040754285 -0.017232649 -0.016936624 -0.040846042
000190 2d 4b 11 3d 92 7a 08 3d eb 13 c8 3b 0c 46 e8 3c
       0.035472084 0.033320017 0.00610589 0.028353713
0001a0 95 73 08 3c a0 85 32 bd 11 76 03 3d ee ae ea ba
       0.008328338 -0.043584466 0.03209502 -0.0017904916
0001b0 ff 7d 7b bc bb ff ea 3c ea 27 31 bd 90 bc 1b bd
       -0.015349864 0.028686395 -0.043250956 -0.038021624
0001c0 08 00 05 bd cc 4f 15 3d 93 b8 69 bd d7 be 6f bc
       -0.032470733 0.036453053 -0.05706079 -0.014632902
0001d0 98 fa 7a 3b c9 93 1c 3c 53 06 7e 3c 2b 30 ef 3c
       0.0038296338 0.009556719 0.0155044375 0.029197773
0001e0 86 45 93 bc 94 c5 61 bc b4 c0 97 3b 26 cd d7 3c
       -0.017977487 -0.013780016 0.0046311263 0.02634294
0001f0 b2 91 1b bc af 8f 67 3d cd 63 29 3d 77 60 1f 3d
       -0.009495186 0.05653351 0.041354943 0.038910355
000200 53 9b a0 bc a1 ff 29 3b 76 82 c2 3c bd 2f 51 bc
       -0.019605314 0.002593972 0.02374385 -0.012767729
000210 4e f8 aa bc 46 6d 49 bd 1c ee f9 3c 51 d0 82 3d
       -0.020870354 -0.049176477 0.030509047 0.063873895
000220 b6 23 89 3d 9d cc 82 3d 33 6f a6 3c af 27 be 3c
       0.066962644 0.06386683 0.020316696 0.023212282
000230 10 c4 de 3c ab de 81 3d 86 e9 77 3d c5 3c 02 bd
       0.0271931 0.06341299 0.06052544 -0.031796236
000240 0d f7 71 3d 36 a5 45 3c 21 dc 24 3d 3a cc d0 3c
       0.059073497 0.012063315 0.040248994 0.025488008
000250 ba 85 82 bb 35 af c4 3c e5 04 21 3d c2 1d 3a 3c
       -0.0039832266 0.024009326 0.03931131 0.011359634
000260 e9 7e fb 3c b8 f9 1a 3d 85 73 50 bd 9b 14 7e bd
       0.030700164 0.037835807 -0.050891418 -0.06203137
000270 4e 34 4f bc 71 67 2c bd e4 0d 10 3d a6 60 89 bd
       -0.012646748 -0.042090837 0.035169497 -0.06707887
000280 2c ed d8 3b b6 c3 21 3a e4 70 ef 3b 37 a6 ee bc
       0.00662007 0.0006170826 0.007307159 -0.029131992
000290 9b d4 2b bd 36 3c 4c 3d 99 b2 ec 3c ba 9c 60 3d
       -0.041950803 0.04986211 0.028893756 0.054836966
0002a0 c5 fc fe 3c 2c f5 14 bd 86 e2 15 bd 1b 91 3c 3b
       0.03112639 -0.036366627 -0.036592983 0.0028773013
0002b0 74 f7 68 3d 12 49 3d 3d d9 cd 40 3d a5 97 c2 bc
       0.056876615 0.046212263 0.04707131 -0.02375395
0002c0 b3 ab 10 3d 39 19 5e 3d 23 eb 4d 3d c1 75 86 bd
       0.035319995 0.054223273 0.050273072 -0.065654285
0002d0 40 59 52 bd c2 96 bc 3c 92 d6 fb bc b6 12 c8 bc
       -0.051354647 0.023021106 -0.030741964 -0.024422985
0002e0 86 60 41 3d 79 7c 53 bd 5f 8e 2c bd b7 c6 cc bc
       0.047211193 -0.05163238 -0.042127963 -0.024997098
0002f0 67 a9 f0 3b ea 0d 1b bd bd bf 56 3c ee 60 f4 bc
       0.007344413 -0.037855066 0.013107237 -0.029831376
000300 c4 9a 94 bc b7 75 32 bd 9c 54 8d 3c 1c 15 7b bb
       -0.018140204 -0.043569293 0.017252259 -0.0038312143
000310 28 97 6b 3d 30 4f 30 3d 78 dc 80 3d c0 d1 84 bd
       0.0575172 0.04304427 0.06292051 -0.06485319
000320 48 c4 78 3c ec 2c f8 3c 06 d7 7a 3d 5e b1 87 3d
       0.015183516 0.030294858 0.06124022 0.06625627
000330 5d 68 bf 3c 8d ff 80 3d b2 cb 9f bc c3 a2 d8 3b
       0.023365194 0.062987424 -0.01950631 0.0066111996
000340 9a 66 50 bd cf 07 22 3d 90 4a 10 bd a5 17 77 3c
       -0.0508791 0.039558228 -0.03522736 0.015081321
000350 d6 76 c3 3b 48 f1 2e bd 57 2e 64 bc 1f 73 0e bd
       0.005965094 -0.042710572 -0.013927064 -0.034777757
000360 32 6d 08 3c 52 04 37 3d 5c b3 dd bc d6 51 dc bc
       0.008326815 0.044681855 -0.027063064 -0.026894491
000370 2c 7a 76 bd 6d 0d da 3c 03 06 5a 3d 1b 22 38 bc
       -0.060175106 0.02661773 0.05322839 -0.0112386
000380 ff 37 d1 b9 35 82 42 bd 1f c0 0e bd a5 7f 50 bd
       -0.00039905307 -0.047487456 -0.03485119 -0.05090298
000390 c1 9b 1a 3d 4d 3c cf bc c5 3f ce bc 6d 54 4b bd
       0.037746195 -0.025297308 -0.025176892 -0.04964106
0003a0 1e e7 79 bd 2a 4b fc bc 7a f7 d4 bb c9 77 19 3d
       -0.061011426 -0.03079756 -0.006499228 0.03746775
0003b0 bd b4 98 3c b0 5e 38 bd e5 f7 41 bd 83 d8 e3 bb
       0.01864087 -0.045012176 -0.04735555 -0.0069533004
0003c0 8d 4d 64 bc 75 81 13 3d fd ba 83 3d 09 59 38 bd
       -0.013934505 0.03601213 0.064321496 -0.045006786
0003d0 52 f1 35 3d 15 55 75 3d 53 ed 0e 3c 96 38 d2 bc
       0.044419594 0.059895594 0.008723575 -0.025661748
0003e0 a3 cb 92 3c 20 c4 84 bd 7c 1e 5a bd a2 71 56 3c
       0.017919367 -0.064827204 -0.05325173 0.013088616
0003f0 c2 4c 71 bd 90 dc 0d 3d 17 bc 78 3d e8 00 97 bc
       -0.058911093 0.034634173 0.06072625 -0.01843305

weight f4 [512]
000000 dd 76 7d 3f 1e 03 a2 3f b3 c2 76 3f b1 a6 82 3f
       0.99009496 1.2657201 0.9639084 1.020712
000010 ec 8a 82 3f 4c 98 4c 3f c9 36 74 3f d2 7d 7f 3f
       1.0198646 0.79919887 0.95396096 0.9980136
000020 f2 6a 83 3f 5d cd 83 3f 59 be 8e 3f 84 e7 25 3f
       1.0267012 1.0297047 1.115184 0.6480639
000030 b4 1d 5b 3f 7b bf 94 3f 90 3f 5e 3f 25 3c 82 3f
       0.855922 1.1620935 0.8681574 1.0174605
000040 8e 9e 8c 3f 3f 42 7b 3f 6d d8 69 3f c8 c3 6e 3f
       1.0985887 0.9814796 0.91345865 0.9326749
000050 67 9f 8c 3f e9 2c 7f 3f 87 25 84 3f d9 8a 49 3f
       1.0986146 0.996779 1.0323952 0.7872749
000060 62 db 63 3f e7 be 83 3f 53 32 8c 3f 4f e4 7c 3f
       0.89006627 1.0292634 1.0952858 0.9878587
000070 ac d8 5c 3f c5 cf 71 3f ea 98 73 3f cb 66 57 3f
       0.86268115 0.94457656 0.95155203 0.84141225
000080 9e 19 3c 3f cc 2a 59 3f dd c6 7f 3f 01 95 76 3f
       0.7347659 0.8483093 0.99912816 0.9632111
000090 9f 18 71 3f c3 ed 82 3f 37 3b 80 3f ad a9 52 3f
       0.94178194 1.0228809 1.0018071 0.82290155
0000a0 46 50 7f 3f 3a 21 7e 3f 78 eb 89 3f f8 c0 81 3f
       0.9973186 0.9926945 1.0774984 1.0137014
0000b0 58 c2 5c 3f aa a4 46 3f 1c e0 6b 3f 06 9d 5c 3f
       0.86234045 0.7759501 0.9213884 0.861771
0000c0 84 ad 80 3f fa aa 62 3f a2 52 84 3f 4b e0 53 3f
       1.0052953 0.8854214 1.0337718 0.8276412
0000d0 49 b8 7c 3f ae b5 84 3f b3 29 58 3f c4 57 78 3f
       0.98718697 1.0367944 0.8443863 0.9700892
0000e0 64 51 30 3f e4 30 68 3f af 62 90 3f 5a 89 7f 3f
       0.6887419 0.906996 1.1280116 0.99818957
0000f0 44 a5 3f 3f 4f b6 7a 3f a9 fb 75 3f 8f 77 77 3f
       0.7486155 0.9793443 0.9608713 0.96666807
000100 57 91 84 3f 73 b9 85 3f a4 f5 94 3f 71 07 7a 3f
       1.0356854 1.044722 1.1637464 0.97667605
000110 98 bb 82 3f 90 4e 49 3f 20 08 87 3f ab 3c 72 3f
       1.0213499 0.786355 1.0549355 0.9462382
000120 98 7a 82 3f f8 c8 5e 3f 2b 7a 6c 3f 41 49 8c 3f
       1.0193663 0.87025404 0.92373914 1.0959855
000130 04 28 7b 3f 6d 7d 76 3f b0 43 88 3f 72 14 77 3f
       0.98107934 0.96285135 1.0645657 0.9651557
000140 e2 a5 86 3f 95 b2 81 3f f6 da 5e 3f 87 c6 97 3f
       1.0519373 1.0132624 0.8705286 1.1857461
000150 41 82 64 3f 03 6e 59 3f 6d 73 73 3f 43 a2 84 3f
       0.8926125 0.8493349 0.95098 1.0362018
000160 7e c7 8f 3f 4c 67 66 3f 29 e4 81 3f c8 26 47 3f
       1.1232755 0.9000137 1.0147754 0.7779355
000170 5e 23 43 3f 88 39 7b 3f 4a 89 54 3f 0a 2c 69 3f
       0.7622584 0.9813466 0.83021986 0.91082823
000180 a2 7a 52 3f 6d b6 7b 3f b8 b6 62 3f 29 e9 8a 3f
       0.8221837 0.98325235 0.88560057 1.0852405
000190 a6 a2 85 3f e3 2a 6e 3f 41 45 84 3f f0 1a 75 3f
       1.0440261 0.9303419 1.0333635 0.9574423
0001a0 fb 08 8a 3f 18 95 81 3f 41 e0 6c 3f bc 31 59 3f
       1.0783991 1.0123625 0.92529684 0.84841514
0001b0 6b 05 85 3f 24 b4 48 3f a9 8c 97 3f 61 06 94 3f
       1.0392278 0.7839987 1.1839801 1.1564447
0001c0 11 a4 7b 3f 67 48 59 3f 7a 68 51 3f 0b 36 63 3f
       0.9829722 0.848761 0.81800044 0.8875434
0001d0 66 82 8e 3f c9 8b 64 3f 78 34 8f 3f c6 0a 5f 3f
       1.1133544 0.89275795 1.1187887 0.87125814
0001e0 1c eb 66 3f d8 f6 85 3f 07 43 87 3f a7 fe 73 3f
       0.902025 1.0465956 1.056733 0.95310444
0001f0 86 8a 45 3f 5a 5a 70 3f 0c 52 83 3f 8a c2 6e 3f
       0.77164495 0.93887866 1.0259414 0.93265593
000200 50 9e 55 3f 0e a6 60 3f a4 66 70 3f 7b 58 54 3f
       0.8344469 0.8775338 0.9390662 0.8294751
000210 b1 aa 61 3f 79 76 8d 3f dc 46 89 3f 2c f5 65 3f
       0.8815108 1.105178 1.072475 0.8982723
000220 36 7a 6b 3f 5a ce 7d 3f bf 4f 82 3f 54 ce 5f 3f
       0.91983354 0.9914299 1.0180587 0.87424207
000230 75 f5 7c 3f 77 61 82 3f 02 4e 8b 3f b0 f6 60 3f
       0.9881204 1.0185994 1.0883181 0.87876415
000240 e4 0c 62 3f 6b ce 86 3f 2e fe 76 3f 96 b5 79 3f
       0.8830092 1.0531744 0.964816 0.97542703
000250 45 1a 7d 3f 9d ef 86 3f b7 d6 84 3f 7d 29 1d 3f
       0.9886821 1.0541874 1.0378026 0.6139143
000260 26 66 57 3f d4 00 65 3f 88 7a 89 3f 1a 41 6a 3f
       0.8414024 0.8945439 1.0740519 0.9150559
000270 bc 0e 60 3f 15 80 83 3f 37 3d 67 3f 48 23 8d 3f
       0.8752248 1.0273463 0.9032778 1.1026392
000280 92 b7 66 3f 3c ce 47 3f 32 ec 81 3f 06 f6 75 3f
       0.90123856 0.78049064 1.0150206 0.96078527
000290 8a b8 46 3f a0 f6 71 3f 76 14 8b 3f 76 f9 43 3f
       0.77625334 0.94516945 1.0865619 0.7655252
0002a0 2b 3c 5b 3f b2 b8 77 3f a6 85 94 3f fd 01 22 3f
       0.85638684 0.967662 1.1603286 0.63284284
0002b0 d3 b5 84 3f a5 73 7b 3f aa 35 71 3f 9f 95 95 3f
       1.0367988 0.98223335 0.9422251 1.1686286
0002c0 0c 3f 66 3f 6b 41 78 3f fe 96 78 3f d5 95 32 3f
       0.8993995 0.9697482 0.97105396 0.69759876
0002d0 b2 2c 6d 3f dd 2f 70 3f ac 95 77 3f 63 3b 73 3f
       0.92646325 0.93823034 0.96712756 0.9501249
0002e0 9b 59 33 3f b4 d3 7d 3f 9a 44 7a 3f 9b bd 43 3f
       0.700586 0.9915116 0.9776093 0.7646119
0002f0 3b 5f 7a 3f 60 c3 6b 3f a9 0d 85 3f 3b 6f 2c 3f
       0.9780156 0.92094994 1.0394794 0.67357224
000300 9e 32 5e 3f 1d 63 84 3f db 58 7c 3f 15 1b 7e 3f
       0.86795986 1.0342747 0.9857308 0.99260074
000310 68 67 66 3f 88 7e 8e 3f 67 e7 46 3f 85 ee 69 3f
       0.90001535 1.1132364 0.7769684 0.91379577
000320 e8 91 33 3f 1e 3a 8f 3f bf f9 76 3f f0 92 80 3f
       0.7014451 1.1189611 0.9647483 1.0044842
000330 ec a3 67 3f 28 86 78 3f 9d 82 79 3f f2 0c 90 3f
       0.904845 0.97079706 0.97464925 1.125395
000340 20 5e 5f 3f 8c 96 51 3f 2d e7 71 3f ae 8e 54 3f
       0.87253 0.8187034 0.9449337 0.8303021
000350 c5 8e 6f 3f 74 82 5e 3f d0 85 72 3f ff ed 85 3f
       0.93577224 0.86917806 0.9473543 1.0463256
000360 2b fc 5a 3f fb c8 64 3f c2 1f 83 3f 5c f7 79 3f
       0.8554103 0.8936917 1.0244067 0.97643065
000370 57 85 2e 3f f1 42 71 3f cf 78 7e 3f 55 f3 80 3f
       0.6817221 0.9424277 0.9940309 1.0074259
000380 8d 83 74 3f 03 53 5f 3f 4e 61 8e 3f 6a 00 79 3f
       0.9551323 0.8723604 1.1123445 0.97266257
000390 e4 98 5a 3f d9 d4 60 3f e4 15 65 3f 11 e2 7c 3f
       0.8538954 0.8782478 0.8948653 0.9878245
0003a0 4a b4 75 3f 32 f9 5f 3f e1 4c 62 3f 12 28 6e 3f
       0.95978224 0.87489617 0.8839856 0.9302989
0003b0 be 6b 7a 3f e4 e9 6a 3f 10 6a 9c 3f 79 db 79 3f
       0.9782065 0.9176314 1.2219868 0.97600514
0003c0 d0 89 61 3f 7d 25 7a 3f 6a 17 49 3f 6a c1 8c 3f
       0.8810091 0.9771345 0.7855135 1.0996525
0003d0 f2 16 99 3f 31 24 68 3f 69 48 84 3f 8d 23 66 3f
       1.1960127 0.90680224 1.0334598 0.89897996
0003e0 f0 ed 82 3f 38 50 41 3f cc fc 38 3f 2c 12 8e 3f
       1.0228863 0.7551303 0.7226074 1.1099296
0003f0 0a 70 56 3f ee 19 4d 3f a9 5e 71 3f 7e c6 8a 3f
       0.8376471 0.8011769 0.94285065 1.0841825

bias f4 [512]
000000 f6 a7 18 be af 42 c7 3d 62 a2 04 3d 04 26 d0 bd
       -0.14907822 0.09729516 0.032381423 -0.10163501
000010 2a ce 0e be 28 f7 ba bd 1f 2c 0a be a1 3f 2a be
       -0.13945833 -0.091291726 -0.13493393 -0.16625835
000020 1a cf 19 be 4a 08 0d 3e 56 b9 ca be b1 77 24 3e
       -0.15020409 0.13772693 -0.39594525 0.16061284
000030 f8 e0 2e be 5f 00 08 bf 4a 73 2f be 8d c1 9c bd
       -0.17078006 -0.53125566 -0.17133823 -0.076541044
000040 7b 3d 9d be e6 7f 79 be 94 9d 39 3e 91 85 d7 3c
       -0.30710968 -0.24365196 0.18126518 0.026308807
000050 79 61 cf 3c 2d 5b a1 be 17 4a 2a 3e 82 21 95 3d
       0.025315033 -0.31514874 0.16629826 0.07281782
000060 e9 f0 17 be 53 c2 8b bd bb 07 bb 3d 87 dc cd 3c
       -0.14837994 -0.06824174 0.09132334 0.02512957
000070 8e ff a2 bd 7a 7f 34 bd 48 63 36 3e 3a 10 52 bd
       -0.079588994 -0.044066884 0.1781131 -0.051285006
000080 da 9d 25 3d 9e ec 6a 3d 81 ed dd bd 47 6d 3e bc
       0.040433742 0.057354562 -0.10836316 -0.011622733
000090 18 bc 22 be 16 e1 6e be d2 4d 41 3c 64 20 59 3e
       -0.15892065 -0.23328051 0.011798339 0.21203762
0000a0 25 27 40 bf 0d 6a 34 be 70 31 f1 3c 2d 57 95 bd
       -0.7505973 -0.1761858 0.029442519 -0.07292018
0000b0 e3 c1 d0 bd 9c 6f 85 be 53 72 0c bf a9 ca 47 be
       -0.10193231 -0.26061714 -0.54861945 -0.19510902
0000c0 1e d5 46 be 39 e7 30 3e 14 6b 0b bf 2b ab fc 3d
       -0.19417235 0.17275704 -0.54460263 0.12337335
0000d0 45 a9 22 bd f7 93 68 bd 73 2e ce bd 70 f3 35 be
       -0.03971221 -0.056781735 -0.10067453 -0.17768645
0000e0 e7 a5 32 3d 22 48 0e 3e e4 d0 9d be c9 b3 a9 be
       0.043615248 0.13894704 -0.30823433 -0.33144978
0000f0 c2 13 8b bd 99 bb fa 3a 67 a5 4d bd 55 a5 cb bc
       -0.06790878 0.0019129395 -0.050206568 -0.02485911
000100 15 8b 6f bd 5e 5c 9a bd fc f1 11 3e c4 6a f0 3d
       -0.05848225 -0.07537149 0.14252466 0.11739114
000110 2a ca d3 3e 43 ce b2 bd e8 01 bd bd 1f 62 68 be
       0.41365176 -0.087307476 -0.09228879 -0.2269368
000120 bd 6a b1 3d 1d fe 2a be 99 6e 79 be 54 b8 d9 be
       0.08662937 -0.16698499 -0.24358596 -0.42523444
000130 c7 85 5a 3e b7 ee 37 be b6 02 dc bd 0b e9 b0 bd
       0.21340095 -0.17962156 -0.107427046 -0.086381994
000140 e9 dd 7a bd 48 7e aa bd 4a d7 14 3d 35 80 95 3e
       -0.061246786 -0.083248675 0.03633813 0.29199377
000150 28 0f 3f 3d f5 34 c2 3d 6f e8 8c be a4 ef 75 3d
       0.046645314 0.09482757 -0.27521083 0.060042992
000160 0e bc a2 3d 73 22 04 3e 7f e0 96 bd cb 63 08 bf
       0.07946025 0.12903766 -0.07367038 -0.5327727
000170 6d fe 08 3d 21 1c ca bd 2d 6e a0 bc 25 e8 94 3d
       0.033445764 -0.098686464 -0.019583786 0.072708406
000180 ca 98 f0 3d d1 33 95 bb 3a c8 17 3e ee 5f 87 3c
       0.11747892 -0.004553296 0.14822474 0.016525235
000190 57 0a 9e 3c 75 0d be bd 6b 84 ef bd 47 c3 ce bb
       0.01929204 -0.092799105 -0.116951786 -0.0063099
0001a0 1b 1a 3f bd 1e 6b ad 3d e2 ef c1 3c 93 ff c5 3d
       -0.046655755 0.084676966 0.023673955 0.096678875
0001b0 99 e4 53 ba 3a a7 38 3e aa ad 06 3e b1 71 81 be
       -0.0008083075 0.18032542 0.13152185 -0.25282052
0001c0 ff 1a dd bd a9 69 dd 3d 18 6d 6a ba 00 8d 38 3d
       -0.10796165 0.10811169 -0.0008942648 0.045056343
0001d0 3b 37 8f be 7a f0 42 3e e5 e6 a2 3d f5 61 1b 3e
       -0.27971825 0.19037047 0.07954196 0.15174086
0001e0 3e a9 c0 3d 9f fb c1 3c db 12 04 be 92 7a 53 3e
       0.094072804 0.023679553 -0.12897818 0.20652226
0001f0 3b d5 c3 3d 2c 6b 15 3e 67 fd bc bd b3 88 45 be
       0.09562155 0.14591664 -0.0922802 -0.19290428
000200 c9 4c 40 be 1e b0 61 be 8f 16 18 be b8 ba 1f 3e
       -0.18779291 -0.2203984 -0.14852355 0.15598571
000210 5f fa 87 3d 61 3d a3 be 2f 2e 47 be f0 81 6f be
       0.06639551 -0.31882766 -0.19451211 -0.23389411
000220 f2 f5 d0 3d 7f 2f cd bd 64 5b d0 bd 59 2d f6 3d
       0.1020316 -0.10018825 -0.101736814 0.12020368
000230 d9 a5 f6 bd 96 d8 f2 bc a7 31 93 be 2c e8 8b be
       -0.12043352 -0.029644292 -0.2874882 -0.2732557
000240 29 90 4f 3d ce f6 8a bd 2f ac a9 3d 81 43 0d be
       0.05067459 -0.067853555 0.082847945 -0.13795282
000250 5c f0 d3 bd 4e 86 cc be b5 a7 dd bd 41 d8 84 bd
       -0.10348579 -0.39946216 -0.10823003 -0.0648656
000260 22 13 88 bd 0a 4a 1b be 27 92 9a 3d d8 8b 0d be
       -0.06644274 -0.15164962 0.075474076 -0.13822877
000270 83 15 82 3d 55 02 0d 3e d4 48 11 3e 8e 75 d2 3e
       0.06351759 0.13770421 0.14187938 0.41105312
000280 b3 69 dc 3d a2 f0 71 bd ee 56 48 bc 2b 80 06 3b
       0.10762348 -0.059067376 -0.012227757 0.0020523171
000290 dd a1 80 3e 66 1a 2b bc b9 94 57 bd 5d 81 b2 3d
       0.25123492 -0.010443306 -0.052632067 0.0871608
0002a0 b0 74 aa 3d 10 a9 45 3d 14 d7 7d 3e d5 5e a2 3d
       0.083230376 0.048256934 0.24789077 0.07928244
0002b0 17 17 e7 bd dd cd e1 3d 72 f1 d5 bd 5d 38 49 be
       -0.11283701 0.110255934 -0.10446443 -0.19650407
0002c0 ff e5 89 be e8 ff 55 be 19 30 9c bd 3c 44 a6 3d
       -0.26933286 -0.20898402 -0.076263614 0.081184834
0002d0 3a f0 5d 3d ba 02 a4 bd 1c 51 81 3d 99 32 98 be
       0.054184176 -0.080083326 0.063142985 -0.29726103
0002e0 e9 0e 37 3e e7 9a 6e be 8d 84 4a 3d dd de ec 3d
       0.17876782 -0.23301278 0.049442817 0.11565945
0002f0 f0 6c d2 3d 05 ec 0a bd 4f 3b 43 be 2a 79 b0 bd
       0.102746844 -0.033916492 -0.19065593 -0.0861686
000300 a6 a9 46 3c 01 9f af bd bc 82 05 3e 76 5d c1 3c
       0.012125408 -0.085752495 0.13038152 0.023604136
000310 68 b9 4e be f0 22 bd 3a 5d 55 d0 3d 52 30 51 3e
       -0.20187914 0.0014429968 0.10172532 0.20428589
000320 49 c5 44 3e 4d 30 02 be 5c 73 23 bf 54 54 a3 3d
       0.19215883 -0.12713738 -0.638479 0.07975069
000330 7c f3 97 be 5b 5b 2d be 55 ce b6 bc 26 95 25 be
       -0.2967795 -0.1692938 -0.022315184 -0.16170177
000340 d4 be 46 bd 7b 83 42 3d f7 6e d6 bd 2b a3 11 3e
       -0.04852183 0.04748867 -0.104703836 0.142224
000350 98 19 5e 3c 42 9f b2 bd 02 fa 0f be 2b 0e 14 bd
       0.013555907 -0.08721782 -0.14060214 -0.036146324
000360 fc 75 f3 be af 7c 06 3d df aa c4 3d 78 b0 e3 3d
       -0.47550952 0.03283375 0.096029036 0.11117643
000370 e9 76 03 3e 43 89 5f 3e 24 ed 7e bd 41 f9 de bc
       0.1283833 0.21829705 -0.062237874 -0.027218463
000380 bf e3 b0 be 6b 77 38 be 21 10 fa 3e 77 8b e4 bd
       -0.34548756 -0.18014304 0.4884043 -0.11159413
000390 28 1e e9 3d 82 ad 9a 3c 0a a5 90 3d 3c a2 02 be
       0.11382705 0.018881563 0.07062729 -0.127572
0003a0 27 cb 88 be 15 03 ea 3d f4 04 6e 3d 61 61 2c be
       -0.26717493 0.11426369 0.058110192 -0.16834022
0003b0 c5 be 91 3c 02 94 7e 3e 51 7b 81 3e ab fa e1 bc
       0.017791161 0.24861148 0.25289395 -0.027585348
0003c0 95 7a ec 3b e0 a6 0e 3c a7 90 4d 3c 22 c0 d0 bd
       0.0072167614 0.008706778 0.012546695 -0.101928964
0003d0 d3 5b 14 bd be 0d 86 be 90 8d 93 be d7 e1 5a be
       -0.036220383 -0.2618236 -0.2881894 -0.21375214
0003e0 9d ba 21 3e cb 2e 96 3d c4 6d 1b 3e 07 7f 19 bd
       0.15793844 0.07333144 0.15178591 -0.03747466
0003f0 c9 15 e9 bc 02 26 a0 3d c4 8a 57 bd a4 2b b9 bd
       -0.02845277 0.078197494 -0.05262257 -0.09041527

running_mean f4 [512]
000000 b6 7d 91 c3 e4 ff e6 41 16 3f ca 42 58 bb 0b c2
       -290.98212 28.874947 101.123215 -34.932953
000010 2e 48 53 c2 15 d7 92 c3 dd fa 19 c3 46 df 78 43
       -52.820488 -293.68033 -153.97993 248.87216
000020 c3 1b d0 c3 8c c8 16 c3 b4 3b 81 43 c8 4a 73 43
       -416.2169 -150.78339 258.46643 243.29211
000030 d4 1b 95 c3 f3 91 1b 44 ec 32 a4 c3 ed b3 1d c4
       -298.2174 622.28046 -328.39783 -630.81134
000040 cd 61 d1 42 b7 8a b2 c3 9c ab a6 43 60 e0 f1 42
       104.69102 -357.0837 333.3407 120.93823
000050 2b 22 2b c4 92 02 02 c4 6a d6 94 42 1d 82 90 43
       -684.5339 -520.04016 74.41878 289.0165
000060 42 8d 2e c3 87 84 88 c3 c9 e5 2f 43 f2 d1 f8 c2
       -174.55179 -273.03537 175.8976 -124.41005
000070 be c2 b9 c2 43 f1 ef c2 0a 0e 28 41 7b 5c 9c c1
       -92.880356 -119.971214 10.5034275 -19.545156
000080 99 b2 79 c2 4b 3a 81 43 70 fb 5b c3 7b 37 c6 42
       -62.42441 258.4554 -219.98218 99.10836
000090 27 00 2d c4 de ac 29 c2 1d f4 23 42 2d 69 04 43
       -692.0024 -42.418816 40.98839 132.41084
0000a0 29 70 24 44 2a 77 a5 c3 f0 bb 4a 43 95 ef b9 c3
       657.7525 -330.93097 202.73413 -371.87173
0000b0 00 5f 78 3d 99 f9 f6 c3 17 38 a5 43 c1 76 ed 43
       0.060637474 -493.94998 330.4382 474.92776
0000c0 57 6c 90 c3 75 47 80 43 61 4f b2 c3 76 a3 3b 43
       -288.8464 256.55826 -356.62015 187.63852
0000d0 6a 18 34 c2 51 11 52 43 98 a1 52 c2 01 2b 25 c2
       -45.02384 210.06764 -52.657806 -41.291996
0000e0 96 8e 22 42 d6 44 8d 43 18 18 48 44 d0 fa 27 c4
       40.639244 282.53778 800.37646 -671.91895
0000f0 bf 7b 35 c2 d5 1c 42 43 1b 1d eb c2 a3 75 1f 42
       -45.370846 194.11263 -117.55685 39.86488
000100 a1 19 12 c3 3c 66 59 c3 1c 05 1d 43 7f 47 cc 42
       -146.10011 -217.39935 157.01996 102.13964
000110 3a ed df 43 4a 76 23 44 fd d7 61 43 a6 f2 fa 41
       447.85333 653.84827 225.8437 31.36848
000120 cb 6d 08 43 fc 99 df 42 05 5f 79 43 80 3f 30 44
       136.42888 111.80075 249.37117 704.9922
000130 60 20 39 43 5d bb 21 c3 41 11 14 c4 66 d2 42 c3
       185.12646 -161.73189 -592.2696 -194.82187
000140 af dc 4e c3 a0 b4 ea c2 a7 df 6a 41 98 74 e3 43
       -206.86205 -117.35278 14.679603 454.9109
000150 d9 ea df 42 1f ca 62 43 25 c5 05 c4 b5 59 d3 42
       111.95869 226.78954 -535.0804 105.67521
000160 10 e4 24 43 81 f5 50 43 a4 54 d5 c3 01 e5 b9 43
       164.89087 208.959 -426.66125 371.7891
000170 82 43 e8 43 4c 51 dd c3 05 67 4a c2 e7 27 0f 42
       464.5274 -442.63513 -50.600605 35.788967
000180 25 11 68 c3 b0 25 58 c2 c0 71 2b 42 d3 0c 38 43
       -232.06697 -54.036804 42.861084 184.0501
000190 65 40 b0 41 9f ad 9f c3 f5 24 21 c4 72 23 f5 42
       22.031443 -319.3564 -644.57745 122.56923
0001a0 ef 6b de 42 30 ff e6 41 df 89 97 c2 29 0f 17 43
       111.21081 28.874603 -75.76928 151.05922
0001b0 9e df 9e 43 41 18 57 42 f6 79 3c c2 a7 a7 fb 43
       317.747 53.773685 -47.119102 503.30978
0001c0 97 c5 58 c3 8e 83 0b 43 1b 2e c4 43 48 88 d3 42
       -216.77184 139.51389 392.3602 105.766174
0001d0 64 31 f4 42 40 ad 60 43 be 55 a3 c2 32 d0 3c 43
       122.096466 224.67676 -81.667465 188.81326
0001e0 7c b6 4f 42 9d 7c f5 42 ed df 6c c3 2e ca 2b 44
       51.928207 122.743385 -236.87471 687.15906
0001f0 8e 5f 7a c2 54 01 5d 43 69 9b 5c c2 f4 bd 42 c3
       -62.593315 221.00519 -55.151768 -194.742
000200 ec f2 1c c4 a4 0e 1c c3 b4 42 2f 44 ab 44 5a 42
       -627.79565 -156.05719 701.04224 54.56706
000210 9c dc 07 c3 4d 1d cc c3 31 78 e4 43 74 58 8e c2
       -135.86176 -408.2289 456.939 -71.17276
000220 d8 df 89 43 d5 de 16 44 d6 27 fc c2 8b 54 5c 42
       275.74878 603.48175 -126.077805 55.08256
000230 79 95 25 c4 43 f6 0f 43 a9 83 9f c3 e6 14 15 c4
       -662.3355 143.96196 -319.0286 -596.32654
000240 66 b3 86 42 1e 91 94 43 e8 6b 8d 42 ea b9 3b c3
       67.35039 297.13373 70.710754 -187.72623
000250 9d 8f 65 c4 90 3f 12 c3 bd 44 9d c3 46 28 1c 43
       -918.24396 -146.24829 -314.53702 156.15732
000260 23 4b 06 42 4a 45 86 c3 f4 69 0e 43 c2 be ce c3
       33.573376 -268.54132 142.41388 -413.4903
000270 ec 83 7e 42 06 e6 9d c3 f5 42 63 c2 4f 18 a7 42
       63.62883 -315.79706 -56.815388 83.54748
000280 fb d6 9e 43 72 ad 5a c2 37 0f 69 43 dc 4f 2e 42
       317.67953 -54.66938 233.05943 43.577988
000290 00 e1 20 43 e0 44 a5 bf 86 06 f0 42 a0 a7 f2 42
       160.8789 -1.2911644 120.01274 121.32739
0002a0 4a 98 a9 43 d3 0a 37 43 49 73 72 43 b1 1b f8 42
       339.18976 183.04228 242.45033 124.054085
0002b0 87 5a 33 c4 a5 c0 77 42 8c 14 65 c3 74 9c 9b c2
       -717.4145 61.93813 -229.08026 -77.80557
0002c0 97 6f f5 c2 c7 5a 66 c3 c2 2e 00 c3 f7 1c bf 42
       -122.71795 -230.3546 -128.18265 95.55657
0002d0 03 2f 06 44 c4 93 35 c3 8a 05 06 43 e2 6b e8 c3
       536.73456 -181.57721 134.02164 -464.84283
0002e0 87 d2 c5 43 7d 9b 92 c3 ca 6b c2 c3 16 51 93 42
       395.64474 -293.21475 -388.8421 73.65837
0002f0 93 bd 0b c3 44 0c 70 c3 8f 1f 34 c3 d0 5c a2 c2
       -139.74052 -240.04791 -180.12328 -81.181274
000300 b8 2c 07 43 a2 da 31 c3 c7 52 e0 c3 28 c6 9a c3
       135.17468 -177.85403 -448.6467 -309.5481
000310 de 19 04 43 d7 b1 5d 43 91 32 fd 43 db 94 4d c3
       132.10104 221.69469 506.39505 -205.58147
000320 75 4d 90 43 a7 92 e5 c3 1c 9c ec c0 18 ce a7 42
       288.60513 -459.14572 -7.3940563 83.90253
000330 d1 56 6d c2 70 8a 90 c3 3e 9f e5 c0 db ed e0 42
       -59.33478 -289.08154 -7.1756887 112.46456
000340 93 d7 b8 42 25 d5 f3 43 76 9b 80 c3 66 38 7e 43
       92.42104 487.6652 -257.21454 254.2203
000350 d8 9c b3 c0 00 c1 f6 c2 e0 85 59 c3 ec 22 0d c4
       -5.612896 -123.37695 -217.52295 -564.54565
000360 54 67 12 c3 ce fc 12 42 00 3f 3f 43 7b f7 17 43
       -146.40363 36.74688 191.2461 151.96672
000370 d3 be 29 43 0f d9 c7 c3 d0 1b 62 c2 a5 e6 f8 c2
       169.7454 -399.69577 -56.52716 -124.45048
000380 ca dd 4f c4 68 72 9e c3 dd f7 9e 43 a4 35 19 c3
       -831.46545 -316.8938 317.93643 -153.20953
000390 46 81 0c 43 65 81 8a 42 3c 09 d2 c3 c5 7c 9a c2
       140.50497 69.25272 -420.07214 -77.24369
0003a0 da 26 9c c3 d3 02 b8 40 54 56 ce 42 91 55 b9 c3
       -312.30353 5.7503448 103.16861 -370.6685
0003b0 9c de 9e 42 3f 74 83 43 c6 8e b6 42 b2 4e 84 42
       79.434784 262.90817 91.278854 66.1537
0003c0 54 99 a5 43 e2 34 bd 42 43 ef c0 41 25 02 36 43
       331.19788 94.60329 24.116827 182.00838
0003d0 05 e5 f3 41 d8 1b 0d c4 2b 1c b7 42 8a 3f 17 c4
       30.486826 -564.43506 91.555016 -604.9928
0003e0 eb 68 16 43 58 fe 8f 43 d3 6c 30 43 ce 5c cf 43
       150.40984 287.98706 176.4251 414.72504
0003f0 af 0a 95 42 a0 97 64 c3 42 b7 15 c3 07 ce 0d 44
       74.52087 -228.59229 -149.71585 567.2192

running_var f4 [512]
000000 94 06 60 49 8d 7d 1a 49 1f 4d 3f 49 d2 66 cd 49
       917609.25 632792.8 783569.94 1.6826502e+06
000010 68 f9 d8 49 46 ba a3 49 3c e0 b7 49 2f 06 0d 4a
       1.777453e+06 1.3412568e+06 1.5063115e+06 2.3105398e+06
000020 48 d2 15 4a c9 93 16 49 9d 80 fb 49 89 a6 17 4a
       2.454674e+06 616764.56 2.0603076e+06 2.4846422e+06
000030 3f 14 19 4a c4 46 ff 49 e3 20 22 4a 2d ab 82 49
       2.5080478e+06 2.0912245e+06 2.6563128e+06 1.0704376e+06
000040 d2 0e 15 49 91 25 0e 4a 9a a8 94 4a 7f 68 4d 4a
       610541.1 2.3289322e+06 4.871245e+06 3.3654078e+06
000050 2d 70 f1 48 d8 1a 1e 4a 75 ff 86 49 33 a9 52 4a
       494465.4 2.59039e+06 1.1059026e+06 3.4514688e+06
000060 4b fb 5d 4a 3d 90 13 4a ef 9d b2 49 2b 62 ef 49
       3.6369468e+06 2.4176792e+06 1.4632299e+06 1.9610294e+06
000070 0a 56 d3 49 02 13 67 49 38 ae 5b 4a 30 a6 89 4a
       1.7312652e+06 946480.1 3.599246e+06 4.510488e+06
000080 0e 36 72 4a ba a9 00 4a ba c0 c5 49 9d 95 66 49
       3.9683875e+06 2.1080145e+06 1.6199912e+06 944473.8
000090 0f 2e b2 49 bc 2a 24 4a 75 94 99 49 ea 86 85 4a
       1.4596499e+06 2.689711e+06 1.2581266e+06 4.375413e+06
0000a0 28 b1 2a 4a 81 c2 68 49 42 8d 3a 49 2d d5 4d 49
       2.796618e+06 953384.06 764116.1 843090.8
0000b0 4c d1 06 4a 26 90 d1 49 71 b0 49 4a 42 1e b7 49
       2.208851e+06 1.7167408e+06 3.3044762e+06 1.5001042e+06
0000c0 f1 69 9d 49 aa a7 d3 49 a0 57 91 4a 6b 93 b7 49
       1.2895341e+06 1.7338772e+06 4.762576e+06 1.5038534e+06
0000d0 2f db 06 4a fa 24 74 49 5b 7c 06 4a f8 1a fb 49
       2.2094838e+06 1.0000156e+06 2.2034148e+06 2.057055e+06
0000e0 6f 2e 3a 4a 6e 99 06 4a c8 c0 d7 49 d2 2a d9 49
       3.0503958e+06 2.2052755e+06 1.767449e+06 1.7790342e+06
0000f0 c8 9b 03 4a 1f 92 71 49 e2 02 62 49 ee 90 c2 49
       2.156274e+06 989473.94 925742.1 1.5938858e+06
000100 d7 57 2b 4a 99 d5 8b 49 bd ac bd 48 a7 b1 91 49
       2.8072858e+06 1.1455231e+06 388453.9 1.1935249e+06
000110 23 c4 21 49 03 bb 21 4a da 8c aa 49 05 7c 3a 4a
       662594.2 2.6497928e+06 1.3971472e+06 3.0553612e+06
000120 c5 4d 23 4a af bc c3 49 73 a0 4e 4a 6f 07 43 4a
       2.6755692e+06 1.6034779e+06 3.3853728e+06 3.1953558e+06
000130 9d d7 28 4a 05 7f db 49 40 68 b3 48 5c c0 3b 49
       2.7663112e+06 1.7981126e+06 367426.0 769029.75
000140 10 2a b1 49 78 c4 d7 48 a7 96 95 49 5c 72 cb 48
       1.45133e+06 441891.75 1.2254289e+06 416658.88
000150 6e cc 85 49 2b d4 c9 4a d9 d8 08 4a c8 ca b1 49
       1.0960778e+06 6.6135255e+06 2.2421022e+06 1.456473e+06
000160 e2 9d 4b 49 69 b1 f6 49 34 e9 72 49 af 00 17 4a
       834014.1 2.0209091e+06 994963.25 2.4740278e+06
000170 b2 5b da 49 e2 6e 93 49 4e 84 c8 49 80 38 ac 49
       1.7887902e+06 1.2077722e+06 1.6426338e+06 1.410832e+06
000180 42 8c be 49 9e f8 80 4a 3f ef 43 4a ae 57 89 49
       1.5609682e+06 4.226127e+06 3.2101918e+06 1.1251098e+06
000190 8f 0a d8 49 19 c1 c7 49 f6 e6 19 49 da 8d 23 4a
       1.7698099e+06 1.6363871e+06 630383.4 2.6796705e+06
0001a0 0e ee ec 48 7c 21 9b 49 1e a2 8f 4a 2f be 04 4a
       485232.44 1.2708315e+06 4.706575e+06 2.1748598e+06
0001b0 02 11 4e 49 04 0f af 4a ae c2 8d 47 fe 61 09 49
       844048.1 5.736322e+06 72581.36 562719.9
0001c0 b9 af 0a 4a ff d9 e8 49 24 dc 76 49 83 93 54 49
       2.2722382e+06 1.9075199e+06 1.01113825e+06 870712.2
0001d0 79 10 0a 4a 41 da f4 49 3c 33 b1 47 07 f8 a3 49
       2.2620462e+06 2.0058321e+06 90726.47 1.3432329e+06
0001e0 6b 7f e9 49 90 ca 51 49 69 fd fe 49 6f 57 51 49
       1.9128134e+06 859305.0 2.0888771e+06 857462.94
0001f0 36 5a 15 4a bf 56 a6 49 9c fe c8 49 4e a2 04 4a
       2.4469895e+06 1.3626479e+06 1.6465475e+06 2.1730755e+06
000200 57 85 04 4a 90 03 91 49 a7 6a 96 49 b2 46 4f 4a
       2.1712218e+06 1.187954e+06 1.2322129e+06 3.3960125e+06
000210 21 bf 12 4a c2 ef 96 49 14 93 91 49 73 f6 b7 4a
       2.4042962e+06 1.2364722e+06 1.1925465e+06 6.0280895e+06
000220 e0 fe 93 49 b6 4c ea 49 be d2 cd 49 9b 3c aa 49
       1.21238e+06 1.9193828e+06 1.6861038e+06 1.3945794e+06
000230 48 f2 3f 49 e0 4c 9b 49 38 8b 42 4a 03 82 47 4a
       786212.5 1.27222e+06 3.187406e+06 3.2687368e+06
000240 27 fc e8 49 ff ca 3f 49 d8 38 ea 49 b7 87 10 4a
       1.9086129e+06 785583.94 1.918747e+06 2.3679818e+06
000250 0d b1 5b 49 a2 72 01 4a 6d 94 df 49 58 73 88 4a
       899856.8 2.1208725e+06 1.8315656e+06 4.471212e+06
000260 c1 a6 25 4a 66 74 de 49 c0 14 a5 49 5c 2f 0b 4a
       2.7140322e+06 1.8223488e+06 1.352344e+06 2.280407e+06
000270 f7 c1 0e 4a 08 2d 61 48 4a d9 b1 4a 2e 29 b2 47
       2.3389418e+06 230580.12 5.827749e+06 91218.36
000280 b8 19 34 4a f9 0b b1 49 50 05 19 4a 21 e1 f1 49
       2.950766e+06 1.4503671e+06 2.507092e+06 1.9814761e+06
000290 e9 83 37 4a 6f 96 9f 49 6c cc a7 49 c2 f4 a2 4a
       3.0067142e+06 1.3073419e+06 1.3746055e+06 5.339745e+06
0002a0 4b b9 af 49 6a 4a 94 4a 79 a4 59 48 8f b1 01 4a
       1.4395294e+06 4.859189e+06 222865.89 2.1248998e+06
0002b0 e0 a0 07 49 a0 78 96 49 13 d4 da 49 75 4f fd 48
       555534.0 1.23266e+06 1.7926424e+06 518779.66
0002c0 04 9c e5 49 52 12 56 4a d4 dc 0d 4a ca 76 61 4a
       1.8809605e+06 3.5073485e+06 2.324277e+06 3.6940025e+06
0002d0 88 12 0c 4a 84 61 d8 49 6f 16 01 4a e0 6c 8f 4a
       2.294946e+06 1.7725925e+06 2.1149718e+06 4.69976e+06
0002e0 dc 01 6a 4a 43 1c 0e 4a b5 25 c7 49 fa e0 8f 49
       3.833975e+06 2.3283368e+06 1.6314146e+06 1.1786552e+06
0002f0 ab 26 ce 49 20 21 05 49 cb 41 c6 49 51 f3 0e 4b
       1.6887894e+06 545298.0 1.6241214e+06 9.368401e+06
000300 37 01 b8 49 c9 3f 97 49 6b f2 4d 49 cd bc 28 48
       1.5073669e+06 1.2390331e+06 843558.7 172787.2
000310 3e 44 f8 49 29 98 07 49 40 8b 0e 4a 58 80 1f 4a
       2.0337998e+06 555394.56 2.33544e+06 2.61327e+06
000320 37 4d e8 4a ff 50 80 48 df d2 4d 4a eb 0f 20 49
       7.6120595e+06 262791.97 3.3722158e+06 655614.7
000330 97 bc 53 4a 66 1c 91 49 07 a0 0b 4a aa 4b 23 49
       3.4690938e+06 1.1887488e+06 2.2876178e+06 668858.6
000340 2d dc f2 49 3d f3 f4 49 9b 6f 9d 49 ee a0 e1 49
       1.9895096e+06 2.0066316e+06 1.2897154e+06 1.8483498e+06
000350 34 a9 86 49 ab 6f 2c 4a c0 d2 9f 49 45 e0 c8 48
       1.1031425e+06 2.8251948e+06 1.309272e+06 411394.16
000360 bf b2 53 4a 39 29 b4 49 3a 08 a0 49 ac 6d 1e 4a
       3.4684638e+06 1.4758791e+06 1.3109832e+06 2.595691e+06
000370 98 01 17 4a 3e 1e e1 48 bf e7 af 49 cd b4 25 49
       2.474086e+06 461041.94 1.4410159e+06 678732.8
000380 ee a2 56 4a 3b 65 4b 4a a3 11 90 48 1f 73 df 49
       3.5166035e+06 3.3324308e+06 295053.1 1.8304999e+06
000390 3d 5d 20 4a 58 fc b1 49 51 8e 68 49 76 9a ec 49
       2.6274072e+06 1.458059e+06 952549.06 1.9382548e+06
0003a0 ac 11 cf 49 c6 01 e8 4a a6 f0 a4 4a 57 d0 11 4a
       1.6963095e+06 7.602403e+06 5.404755e+06 2.3890138e+06
0003b0 80 f8 9f 49 01 28 1f 4a 6e 72 ac 47 c9 c6 ac 49
       1.31048e+06 2.6076162e+06 88292.86 1.4153851e+06
0003c0 0f b8 aa 49 8c 23 d4 49 06 f5 02 4a fd 50 96 49
       1.3985299e+06 1.7378415e+06 2.1456015e+06 1.2313916e+06
0003d0 10 30 57 49 79 df f3 49 07 78 55 4a d4 ec dd 49
       881409.0 1.9978071e+06 3.4974738e+06 1.8180105e+06
0003e0 e4 c0 6f 49 35 46 9f 4a e5 c8 47 4a 30 ad d0 48
       982030.25 5.2190985e+06 3.2732732e+06 427369.5
0003f0 61 f3 0b 4a 69 00 a0 4a 25 79 d4 49 aa 1c f0 49
       2.2929522e+06 5.2429325e+06 1.7405806e+06 1.9669972e+06

weight f4 [128, 512]
000000 32 78 7b 3c 6a 78 c6 bc 4c 46 d9 bb 07 eb 19 3b
       0.015348481 -0.02422734 -0.0066306945 0.0023486034
000010 36 b8 5e 3c a1 c1 23 bd 10 f9 10 3d 5b 13 28 bd
       0.013593724 -0.03997958 0.035393775 -0.041034084
000020 6a 0a d7 bb 8a bf 90 bb 6c 1e 9d 3c 07 85 a4 bc
       -0.0065625207 -0.0044173645 0.019179545 -0.020082964
000030 b6 ac 03 3b 39 dc 02 bc 09 a7 6b bb d4 ef ee bc
       0.0020091957 -0.0079870755 -0.0035957715 -0.029167093
000040 9e 41 43 bd 63 e6 0b 3c 90 ce a9 bc 11 74 05 bd
       -0.04767 0.008538815 -0.02072838 -0.032581393
000050 98 9a c1 3c 59 bf 07 3d 80 03 76 bb 08 25 21 3a
       0.023633286 0.033141468 -0.0037538707 0.00061471807
000060 2c 1a 02 bd a6 b3 19 bd d3 0a 9b bb 7b 00 28 bc
       -0.03176324 -0.03752484 -0.004731515 -0.010254021
000070 67 ae f3 3b 0e 1a b4 3c c9 06 03 3c 14 a3 f0 3b
       0.007436562 0.02198508 0.007997223 0.007343659
000080 cc 53 ed bc de 6f f3 3c db 5d 14 3d f3 71 71 3c
       -0.028970622 0.029716428 0.03622232 0.01473664
000090 c5 ca 6c bc eb 7b ef 3b 9b e5 d2 3c 21 5c bc bc
       -0.014452641 0.0073084733 0.02574425 -0.02299315
0000a0 82 4b 1c bd 48 1e ba bc 57 4b 51 3c 99 ba f9 bb
       -0.038157947 -0.022719517 0.01277431 -0.007621121
0000b0 ab b2 cb bc ca 05 fd bc 30 2f c2 3c 1f 09 a5 bc
       -0.024865469 -0.03088655 0.023704141 -0.02014595
0000c0 c1 63 f9 3c 3f 3e 61 bb 24 52 57 3c 3c 03 47 bc
       0.030443074 -0.0034369377 0.013142142 -0.012146767
0000d0 05 69 34 bd 4c 6c 7f bc 05 40 41 bc 61 64 04 3d
       -0.044045467 -0.015589785 -0.011795049 0.03232229
0000e0 2b 3e dc 3c 8b 66 10 bd 9f 97 4a 3a eb b2 25 bd
       0.026885113 -0.035254043 0.0007728282 -0.040453833
0000f0 a5 42 9a 3c 27 43 1d bd 66 40 79 3c 94 75 bd bc
       0.018830607 -0.03839412 0.015213108 -0.023127355
000100 ca fd cc 3c c2 69 3e bd c7 f7 91 bc 33 39 a0 3c
       0.02502336 -0.046487577 -0.017818345 0.019558525
000110 06 48 f5 bc 9e bd c0 3b b2 a6 b8 3c 98 d7 a1 3c
       -0.02994157 0.005881979 0.022540424 0.019756123
000120 2f c9 27 bd f0 e2 a8 3b a1 f7 96 bc ab 24 38 3c
       -0.040963348 0.005154006 -0.018428626 0.011239211
000130 ee f6 93 3c 75 1d 4b bd e4 4d 15 bc c9 75 18 bd
       0.018062081 -0.04958864 -0.009112809 -0.037221704
000140 24 ff cf 3b 57 42 0c bd ba 0a 03 bd 87 e8 78 3c
       0.006347554 -0.034242954 -0.03199265 0.015192158
000150 c2 61 86 bc d2 39 83 b9 04 51 72 bc 90 4d e3 bc
       -0.016404036 -0.00025029347 -0.014789823 -0.027746946
000160 33 0c 20 bd a1 56 05 3d 56 2b d1 3c 6d 3b 0b 3c
       -0.039074134 0.03255332 0.02553336 0.008498055
000170 a5 07 e5 bc 96 0f 26 bb 1f 72 a5 bc 3b c4 1c bd
       -0.027957747 -0.002533888 -0.020196019 -0.038273077
000180 69 e1 4b 3b 5b 95 e9 3c ea df 35 bd 71 d1 d2 ba
       0.0031109697 0.028513601 -0.044402994 -0.0016084147
000190 70 8e 38 bd bb ec 4b bd 22 b8 ef 3c 0c 63 fc bc
       -0.045057714 -0.04978631 0.029262606 -0.030808948
0001a0 1b a8 36 bd 25 04 08 bd 16 00 f5 bc 6d df 99 3c
       -0.04459391 -0.033207078 -0.029907268 0.018783296
0001b0 a8 4d e8 3c 42 b3 95 3b 3f 76 51 bd 94 f6 59 bc
       0.028357342 0.0045684883 -0.05113816 -0.013303418
0001c0 fb df 10 bd 03 b3 85 bc 21 cb 08 bd a6 64 61 bb
       -0.035369854 -0.016320711 -0.033396844 -0.0034392267
0001d0 0d 4e 0f bd c8 4a 29 bd b5 a2 20 bd 6c 96 67 3c
       -0.034986544 -0.041331083 -0.03921767 0.014134984
0001e0 08 23 9a bc b0 31 01 bb 8e 45 55 bd 18 30 e7 bc
       -0.018815532 -0.0019713454 -0.052068286 -0.028221175
0001f0 66 25 11 bd 51 65 56 3c 67 7d 03 bb c6 3c ef bc
       -0.035436057 0.013085679 -0.002006376 -0.029203784
000200 7b 76 86 bc f7 71 2c 3c ad 2a e2 3b 07 f7 2f bd
       -0.016413918 0.010525218 0.00690206 -0.042960193
000210 14 55 5e 3c 83 29 1b bd 5b 3b 26 3b ac 8a 91 3c
       0.013570089 -0.037881386 0.0025364968 0.01776632
000220 3e 29 16 bd c0 63 15 bd 9c 9d e4 3c 74 8d 3f bd
       -0.036660425 -0.036472082 0.027907185 -0.04676576
000230 e9 54 a7 3c ae 52 20 bd 97 eb 9e bc b6 f3 01 39
       0.02042623 -0.03914135 -0.019399447 0.00012393188
000240 89 2b 08 3d a6 a1 2b 3c d0 d2 fc 3c 58 09 7f 3c
       0.033244643 0.010475552 0.030862242 0.015566193
000250 61 c3 1f bd 11 09 dc 3b 1a 14 ac bc 8c 3c 4e 3c
       -0.039004687 0.006714948 -0.021005679 0.012587678
000260 09 79 24 bd f3 d6 81 3c 3a 88 dd 3a 87 39 fd 3c
       -0.04015449 0.015849566 0.0016901561 0.03091122
000270 b3 28 27 bb 2b ce d4 3c f2 4f 68 bc 45 f2 76 bc
       -0.0025506436 0.025977215 -0.014179217 -0.01507241
000280 ee 73 fe bb a1 a9 25 bd 66 c3 58 bd 17 b9 26 bd
       -0.0077652847 -0.040444974 -0.05292072 -0.04070386
000290 84 fc a7 3c b9 e1 d4 ba a1 72 a1 bc df b8 f2 bc
       0.020506151 -0.0016241587 -0.01970798 -0.029629169
0002a0 70 5c ff 3c 26 7f dc bc 4c 2d 13 bd a2 bd d6 bb
       0.031172007 -0.026916098 -0.03593187 -0.0065533677
0002b0 19 96 34 bd 24 78 cc 3c a3 07 93 3b 72 30 08 bd
       -0.044088457 0.024959631 0.0044869944 -0.033249326
0002c0 bd c2 59 3b 43 e3 16 bd f6 cc 33 bd 5d 3d e9 bb
       0.0033227645 -0.036837827 -0.043896638 -0.007117911
0002d0 29 1d 38 bd 28 62 40 bd c1 37 d2 bb 4b 02 54 bd
       -0.044949684 -0.04696861 -0.006415338 -0.05176
0002e0 4b 1b 35 3c 9c 10 13 bc e0 a3 2e bd 24 53 a5 3a
       0.01105387 -0.008976128 -0.042636752 0.0012613279
0002f0 0b 62 b4 3b df ba 4e bb 0a d6 cc bc 96 34 ff bc
       0.0055048517 -0.003154449 -0.025004406 -0.031153005
000300 c6 2b 0c 3d ea 3e 24 3d 04 26 9a 3c 4e ce 05 3c
       0.034221433 0.040099062 0.018816955 0.008166863
000310 38 8b 36 bd cf 96 9e 3a 93 dc db bc 16 eb 3e bc
       -0.044566363 0.0012099388 -0.026838576 -0.011652729
000320 24 70 73 bc f3 1a c0 bc 43 fd a3 bc f4 a9 03 3d
       -0.014858279 -0.02345035 -0.020018226 0.0321445
000330 ec 1e 6e bb c4 08 f2 bc 22 6c cd 3c b3 dc 38 bd
       -0.003633435 -0.029545195 0.025075976 -0.04513235
000340 88 39 e5 bc 2a 74 69 bd 38 88 60 3c 90 35 3f bd
       -0.027981535 -0.05699555 0.013704352 -0.04668194
000350 2d 2a cd bc 27 bd 18 bd 15 47 7a 3c 1e f5 98 bc
       -0.025044525 -0.037289765 0.015275736 -0.018671568
000360 0e 3a 47 3c 5f 97 82 bc 58 07 41 bd 5f 60 23 bd
       0.012159837 -0.01594132 -0.047126144 -0.03988683
000370 91 7a cb bc 33 25 21 3c 49 2c f5 bc 01 2a fb bc
       -0.024838718 0.009835529 -0.029928343 -0.030659677
000380 31 80 8e bb 47 ad 44 bd 5c e8 2b bd 9c c4 1b bd
       -0.0043487777 -0.048016813 -0.041969642 -0.0380293
000390 d0 24 42 bd cf b8 a5 3c 00 d5 28 3c 3e a3 e5 bc
       -0.04739839 0.020229725 0.010304689 -0.028031942
0003a0 cd 25 d6 3c 4c c6 c1 3c 6c 35 c8 3c 3f 1c 3a bd
       0.026141072 0.023654126 0.024439536 -0.045437094
0003b0 3f 2a 1a 3c ae 3c 3c bd 9b 2c 26 bd 75 2a 95 bb
       0.009409486 -0.045956306 -0.040569883 -0.0045521804
0003c0 f7 31 29 bd fc b0 10 bd 19 74 64 bc f5 5a 08 3d
       -0.041307416 -0.035325035 -0.013943695 0.03328987
0003d0 99 79 05 bd c4 8a c6 ba 23 b0 95 bc 08 7f c0 bc
       -0.032586668 -0.0015147557 -0.018272465 -0.023498073
0003e0 17 59 16 bd 95 86 eb bb a2 8f be 3a 03 ee 42 bc
       -0.036706056 -0.0071876743 0.0014538656 -0.011897567
0003f0 3f 0e 56 bc ec 01 1d bd 30 9e b1 bc 16 02 fe bc
       -0.01306492 -0.03833191 -0.021681875 -0.031006854
